<?xml version="1.0"?>
<net name="TensorFlow_Frontend_IR" version="11">
	<layers>
		<layer id="0" name="conv_lstm2d_input" type="Parameter" version="opset1">
			<data shape="1,25,64,64,3" element_type="f32" />
			<rt_info>
				<attribute name="old_api_map_element_type" version="0" value="f16" />
			</rt_info>
			<output>
				<port id="0" precision="FP32" names="conv_lstm2d_input">
					<dim>1</dim>
					<dim>25</dim>
					<dim>64</dim>
					<dim>64</dim>
					<dim>3</dim>
				</port>
			</output>
		</layer>
		<layer id="1" name="Constant_2358" type="Const" version="opset1">
			<data element_type="i32" shape="" offset="0" size="4" />
			<output>
				<port id="0" precision="I32" />
			</output>
		</layer>
		<layer id="2" name="sequential_1/conv_lstm2d_3/time" type="Const" version="opset1">
			<data element_type="i32" shape="" offset="4" size="4" />
			<output>
				<port id="0" precision="I32" names="sequential_1/conv_lstm2d_3/time,sequential_1/conv_lstm2d_3/time:0" />
			</output>
		</layer>
		<layer id="3" name="Constant_1699" type="Const" version="opset1">
			<data element_type="i32" shape="" offset="0" size="4" />
			<output>
				<port id="0" precision="I32" />
			</output>
		</layer>
		<layer id="4" name="sequential_1/conv_lstm2d_2/time" type="Const" version="opset1">
			<data element_type="i32" shape="" offset="4" size="4" />
			<output>
				<port id="0" precision="I32" names="sequential_1/conv_lstm2d_2/time,sequential_1/conv_lstm2d_2/time:0" />
			</output>
		</layer>
		<layer id="5" name="Constant_1059" type="Const" version="opset1">
			<data element_type="i32" shape="" offset="0" size="4" />
			<output>
				<port id="0" precision="I32" />
			</output>
		</layer>
		<layer id="6" name="sequential_1/conv_lstm2d_1/time" type="Const" version="opset1">
			<data element_type="i32" shape="" offset="4" size="4" />
			<output>
				<port id="0" precision="I32" names="sequential_1/conv_lstm2d_1/time,sequential_1/conv_lstm2d_1/time:0" />
			</output>
		</layer>
		<layer id="7" name="Constant_467" type="Const" version="opset1">
			<data element_type="i32" shape="" offset="0" size="4" />
			<output>
				<port id="0" precision="I32" />
			</output>
		</layer>
		<layer id="8" name="sequential_1/conv_lstm2d/time" type="Const" version="opset1">
			<data element_type="i32" shape="" offset="4" size="4" />
			<output>
				<port id="0" precision="I32" names="sequential_1/conv_lstm2d/time,sequential_1/conv_lstm2d/time:0" />
			</output>
		</layer>
		<layer id="9" name="sequential_1/conv_lstm2d/transpose/perm" type="Const" version="opset1">
			<data element_type="i32" shape="5" offset="8" size="20" />
			<output>
				<port id="0" precision="I32" names="sequential_1/conv_lstm2d/transpose/perm,sequential_1/conv_lstm2d/transpose/perm:0">
					<dim>5</dim>
				</port>
			</output>
		</layer>
		<layer id="10" name="sequential_1/conv_lstm2d/transpose" type="Transpose" version="opset1">
			<input>
				<port id="0" precision="FP32">
					<dim>1</dim>
					<dim>25</dim>
					<dim>64</dim>
					<dim>64</dim>
					<dim>3</dim>
				</port>
				<port id="1" precision="I32">
					<dim>5</dim>
				</port>
			</input>
			<output>
				<port id="2" precision="FP32" names="sequential_1/conv_lstm2d/transpose,sequential_1/conv_lstm2d/transpose:0">
					<dim>25</dim>
					<dim>1</dim>
					<dim>64</dim>
					<dim>64</dim>
					<dim>3</dim>
				</port>
			</output>
		</layer>
		<layer id="11" name="sequential_1/conv_lstm2d/Shape" type="ShapeOf" version="opset3">
			<data output_type="i32" />
			<input>
				<port id="0" precision="FP32">
					<dim>25</dim>
					<dim>1</dim>
					<dim>64</dim>
					<dim>64</dim>
					<dim>3</dim>
				</port>
			</input>
			<output>
				<port id="1" precision="I32" names="sequential_1/conv_lstm2d/Shape,sequential_1/conv_lstm2d/Shape:0">
					<dim>5</dim>
				</port>
			</output>
		</layer>
		<layer id="12" name="sequential_1/conv_lstm2d/strided_slice/stack" type="Const" version="opset1">
			<data element_type="i32" shape="1" offset="4" size="4" />
			<output>
				<port id="0" precision="I32" names="sequential_1/conv_lstm2d/strided_slice/stack,sequential_1/conv_lstm2d/strided_slice/stack:0">
					<dim>1</dim>
				</port>
			</output>
		</layer>
		<layer id="13" name="sequential_1/conv_lstm2d/strided_slice/stack_1" type="Const" version="opset1">
			<data element_type="i32" shape="1" offset="28" size="4" />
			<output>
				<port id="0" precision="I32" names="sequential_1/conv_lstm2d/strided_slice/stack_1,sequential_1/conv_lstm2d/strided_slice/stack_1:0">
					<dim>1</dim>
				</port>
			</output>
		</layer>
		<layer id="14" name="sequential_1/conv_lstm2d/strided_slice/stack_2" type="Const" version="opset1">
			<data element_type="i32" shape="1" offset="28" size="4" />
			<output>
				<port id="0" precision="I32" names="sequential_1/conv_lstm2d/strided_slice/stack_2,sequential_1/conv_lstm2d/strided_slice/stack_2:0">
					<dim>1</dim>
				</port>
			</output>
		</layer>
		<layer id="15" name="sequential_1/conv_lstm2d/strided_slice" type="StridedSlice" version="opset1">
			<data begin_mask="0" end_mask="0" new_axis_mask="0" shrink_axis_mask="1" ellipsis_mask="0" />
			<input>
				<port id="0" precision="I32">
					<dim>5</dim>
				</port>
				<port id="1" precision="I32">
					<dim>1</dim>
				</port>
				<port id="2" precision="I32">
					<dim>1</dim>
				</port>
				<port id="3" precision="I32">
					<dim>1</dim>
				</port>
			</input>
			<output>
				<port id="4" precision="I32" names="sequential_1/conv_lstm2d/strided_slice,sequential_1/conv_lstm2d/strided_slice:0" />
			</output>
		</layer>
		<layer id="16" name="sequential_1/conv_lstm2d/while/Less" type="Less" version="opset1">
			<data auto_broadcast="numpy" />
			<input>
				<port id="0" precision="I32" />
				<port id="1" precision="I32" />
			</input>
			<output>
				<port id="2" precision="BOOL" />
			</output>
		</layer>
		<layer id="17" name="sequential_1/conv_lstm2d/while/loop_counter" type="Const" version="opset1">
			<data element_type="i32" shape="" offset="4" size="4" />
			<output>
				<port id="0" precision="I32" names="sequential_1/conv_lstm2d/while/loop_counter,sequential_1/conv_lstm2d/while/loop_counter:0" />
			</output>
		</layer>
		<layer id="18" name="sequential_1/conv_lstm2d/while/maximum_iterations" type="Const" version="opset1">
			<data element_type="i32" shape="" offset="0" size="4" />
			<output>
				<port id="0" precision="I32" names="sequential_1/conv_lstm2d/while/maximum_iterations,sequential_1/conv_lstm2d/while/maximum_iterations:0" />
			</output>
		</layer>
		<layer id="19" name="sequential_1/conv_lstm2d/TensorArrayV2_1" type="Const" version="opset1">
			<data element_type="f32" shape="0, 0" offset="32" size="1" />
			<output>
				<port id="0" precision="FP32" names="sequential_1/conv_lstm2d/TensorArrayV2_1,sequential_1/conv_lstm2d/TensorArrayV2_1:0">
					<dim>0</dim>
					<dim>0</dim>
				</port>
			</output>
		</layer>
		<layer id="20" name="Constant_72_compressed" type="Const" version="opset1">
			<data element_type="f16" shape="" offset="33" size="2" />
			<output>
				<port id="0" precision="FP16" />
			</output>
		</layer>
		<layer id="21" name="Constant_72" type="Convert" version="opset1">
			<data destination_type="f32" />
			<rt_info>
				<attribute name="decompression" version="0" />
			</rt_info>
			<input>
				<port id="0" precision="FP16" />
			</input>
			<output>
				<port id="1" precision="FP32" />
			</output>
		</layer>
		<layer id="22" name="Constant_74" type="Const" version="opset1">
			<data element_type="i32" shape="1" offset="28" size="4" />
			<output>
				<port id="0" precision="I32">
					<dim>1</dim>
				</port>
			</output>
		</layer>
		<layer id="23" name="ShapeOf_71" type="ShapeOf" version="opset3">
			<data output_type="i32" />
			<input>
				<port id="0" precision="FP32">
					<dim>1</dim>
					<dim>25</dim>
					<dim>64</dim>
					<dim>64</dim>
					<dim>3</dim>
				</port>
			</input>
			<output>
				<port id="1" precision="I32">
					<dim>5</dim>
				</port>
			</output>
		</layer>
		<layer id="24" name="Concat_75" type="Concat" version="opset1">
			<data axis="0" />
			<input>
				<port id="0" precision="I32">
					<dim>1</dim>
				</port>
				<port id="1" precision="I32">
					<dim>5</dim>
				</port>
			</input>
			<output>
				<port id="2" precision="I32">
					<dim>6</dim>
				</port>
			</output>
		</layer>
		<layer id="25" name="Broadcast_76" type="Broadcast" version="opset3">
			<data mode="numpy" />
			<input>
				<port id="0" precision="FP32" />
				<port id="1" precision="I32">
					<dim>6</dim>
				</port>
			</input>
			<output>
				<port id="2" precision="FP32">
					<dim>1</dim>
					<dim>1</dim>
					<dim>25</dim>
					<dim>64</dim>
					<dim>64</dim>
					<dim>3</dim>
				</port>
			</output>
		</layer>
		<layer id="26" name="Constant_9569" type="Const" version="opset1">
			<data element_type="i64" shape="1" offset="35" size="8" />
			<output>
				<port id="0" precision="I64">
					<dim>1</dim>
				</port>
			</output>
		</layer>
		<layer id="27" name="Squeeze_9570" type="Squeeze" version="opset1">
			<input>
				<port id="0" precision="FP32">
					<dim>1</dim>
					<dim>1</dim>
					<dim>25</dim>
					<dim>64</dim>
					<dim>64</dim>
					<dim>3</dim>
				</port>
				<port id="1" precision="I64">
					<dim>1</dim>
				</port>
			</input>
			<output>
				<port id="2" precision="FP32">
					<dim>1</dim>
					<dim>25</dim>
					<dim>64</dim>
					<dim>64</dim>
					<dim>3</dim>
				</port>
			</output>
		</layer>
		<layer id="28" name="Constant_9576" type="Const" version="opset1">
			<data element_type="i64" shape="1" offset="43" size="8" />
			<output>
				<port id="0" precision="I64">
					<dim>1</dim>
				</port>
			</output>
		</layer>
		<layer id="29" name="ReduceSum_9577" type="ReduceSum" version="opset1">
			<data keep_dims="false" />
			<input>
				<port id="0" precision="FP32">
					<dim>1</dim>
					<dim>25</dim>
					<dim>64</dim>
					<dim>64</dim>
					<dim>3</dim>
				</port>
				<port id="1" precision="I64">
					<dim>1</dim>
				</port>
			</input>
			<output>
				<port id="2" precision="FP32">
					<dim>1</dim>
					<dim>64</dim>
					<dim>64</dim>
					<dim>3</dim>
				</port>
			</output>
		</layer>
		<layer id="30" name="Constant_9578" type="Const" version="opset1">
			<data element_type="i64" shape="4" offset="51" size="32" />
			<output>
				<port id="0" precision="I64">
					<dim>4</dim>
				</port>
			</output>
		</layer>
		<layer id="31" name="Transpose_82" type="Transpose" version="opset1">
			<input>
				<port id="0" precision="FP32">
					<dim>1</dim>
					<dim>64</dim>
					<dim>64</dim>
					<dim>3</dim>
				</port>
				<port id="1" precision="I64">
					<dim>4</dim>
				</port>
			</input>
			<output>
				<port id="2" precision="FP32" names="sequential_1/conv_lstm2d/Sum,sequential_1/conv_lstm2d/Sum:0">
					<dim>1</dim>
					<dim>3</dim>
					<dim>64</dim>
					<dim>64</dim>
				</port>
			</output>
		</layer>
		<layer id="32" name="Transpose_84_compressed" type="Const" version="opset1">
			<data element_type="f16" shape="4, 3, 3, 3" offset="83" size="216" />
			<output>
				<port id="0" precision="FP16">
					<dim>4</dim>
					<dim>3</dim>
					<dim>3</dim>
					<dim>3</dim>
				</port>
			</output>
		</layer>
		<layer id="33" name="Transpose_84" type="Convert" version="opset1">
			<data destination_type="f32" />
			<rt_info>
				<attribute name="decompression" version="0" />
			</rt_info>
			<input>
				<port id="0" precision="FP16">
					<dim>4</dim>
					<dim>3</dim>
					<dim>3</dim>
					<dim>3</dim>
				</port>
			</input>
			<output>
				<port id="1" precision="FP32">
					<dim>4</dim>
					<dim>3</dim>
					<dim>3</dim>
					<dim>3</dim>
				</port>
			</output>
		</layer>
		<layer id="34" name="Convolution_85" type="Convolution" version="opset1">
			<data strides="1, 1" dilations="1, 1" pads_begin="0, 0" pads_end="0, 0" auto_pad="valid" />
			<input>
				<port id="0" precision="FP32">
					<dim>1</dim>
					<dim>3</dim>
					<dim>64</dim>
					<dim>64</dim>
				</port>
				<port id="1" precision="FP32">
					<dim>4</dim>
					<dim>3</dim>
					<dim>3</dim>
					<dim>3</dim>
				</port>
			</input>
			<output>
				<port id="2" precision="FP32">
					<dim>1</dim>
					<dim>4</dim>
					<dim>62</dim>
					<dim>62</dim>
				</port>
			</output>
		</layer>
		<layer id="35" name="Constant_86" type="Const" version="opset1">
			<data element_type="i64" shape="4" offset="299" size="32" />
			<output>
				<port id="0" precision="I64">
					<dim>4</dim>
				</port>
			</output>
		</layer>
		<layer id="36" name="sequential_1/conv_lstm2d/convolution" type="Transpose" version="opset1">
			<input>
				<port id="0" precision="FP32">
					<dim>1</dim>
					<dim>4</dim>
					<dim>62</dim>
					<dim>62</dim>
				</port>
				<port id="1" precision="I64">
					<dim>4</dim>
				</port>
			</input>
			<output>
				<port id="2" precision="FP32" names="sequential_1/conv_lstm2d/convolution,sequential_1/conv_lstm2d/convolution:0">
					<dim>1</dim>
					<dim>62</dim>
					<dim>62</dim>
					<dim>4</dim>
				</port>
			</output>
		</layer>
		<layer id="37" name="conv_lstm2d/kernel_compressed" type="Const" version="opset1">
			<data element_type="f16" shape="3, 3, 3, 16" offset="331" size="864" />
			<output>
				<port id="0" precision="FP16">
					<dim>3</dim>
					<dim>3</dim>
					<dim>3</dim>
					<dim>16</dim>
				</port>
			</output>
		</layer>
		<layer id="38" name="conv_lstm2d/kernel" type="Convert" version="opset1">
			<data destination_type="f32" />
			<rt_info>
				<attribute name="decompression" version="0" />
			</rt_info>
			<input>
				<port id="0" precision="FP16">
					<dim>3</dim>
					<dim>3</dim>
					<dim>3</dim>
					<dim>16</dim>
				</port>
			</input>
			<output>
				<port id="1" precision="FP32" names="conv_lstm2d/kernel,conv_lstm2d/kernel:0,sequential_1/conv_lstm2d/split/ReadVariableOp,sequential_1/conv_lstm2d/split/ReadVariableOp:0,sequential_1_conv_lstm2d_split_readvariableop_resource,sequential_1_conv_lstm2d_split_readvariableop_resource:0,unknown,unknown:0">
					<dim>3</dim>
					<dim>3</dim>
					<dim>3</dim>
					<dim>16</dim>
				</port>
			</output>
		</layer>
		<layer id="39" name="conv_lstm2d/recurrent_kernel_compressed" type="Const" version="opset1">
			<data element_type="f16" shape="3, 3, 4, 16" offset="1195" size="1152" />
			<output>
				<port id="0" precision="FP16">
					<dim>3</dim>
					<dim>3</dim>
					<dim>4</dim>
					<dim>16</dim>
				</port>
			</output>
		</layer>
		<layer id="40" name="conv_lstm2d/recurrent_kernel" type="Convert" version="opset1">
			<data destination_type="f32" />
			<rt_info>
				<attribute name="decompression" version="0" />
			</rt_info>
			<input>
				<port id="0" precision="FP16">
					<dim>3</dim>
					<dim>3</dim>
					<dim>4</dim>
					<dim>16</dim>
				</port>
			</input>
			<output>
				<port id="1" precision="FP32" names="conv_lstm2d/recurrent_kernel,conv_lstm2d/recurrent_kernel:0,sequential_1/conv_lstm2d/split_1/ReadVariableOp,sequential_1/conv_lstm2d/split_1/ReadVariableOp:0,sequential_1_conv_lstm2d_split_1_readvariableop_resource,sequential_1_conv_lstm2d_split_1_readvariableop_resource:0,unknown_0,unknown_0:0">
					<dim>3</dim>
					<dim>3</dim>
					<dim>4</dim>
					<dim>16</dim>
				</port>
			</output>
		</layer>
		<layer id="41" name="conv_lstm2d/bias_compressed" type="Const" version="opset1">
			<data element_type="f16" shape="16" offset="2347" size="32" />
			<output>
				<port id="0" precision="FP16">
					<dim>16</dim>
				</port>
			</output>
		</layer>
		<layer id="42" name="conv_lstm2d/bias" type="Convert" version="opset1">
			<data destination_type="f32" />
			<rt_info>
				<attribute name="decompression" version="0" />
			</rt_info>
			<input>
				<port id="0" precision="FP16">
					<dim>16</dim>
				</port>
			</input>
			<output>
				<port id="1" precision="FP32" names="conv_lstm2d/bias,conv_lstm2d/bias:0,sequential_1/conv_lstm2d/split_2/ReadVariableOp,sequential_1/conv_lstm2d/split_2/ReadVariableOp:0,sequential_1_conv_lstm2d_split_2_readvariableop_resource,sequential_1_conv_lstm2d_split_2_readvariableop_resource:0,unknown_1,unknown_1:0">
					<dim>16</dim>
				</port>
			</output>
		</layer>
		<layer id="43" name="sequential_1/conv_lstm2d/while" type="Loop" version="opset5">
			<port_map>
				<input external_port_id="2" internal_layer_id="10" />
				<input external_port_id="3" internal_layer_id="9" />
				<input external_port_id="4" internal_layer_id="8" />
				<input external_port_id="5" internal_layer_id="7" />
				<input external_port_id="6" internal_layer_id="6" />
				<input external_port_id="7" internal_layer_id="5" />
				<input external_port_id="8" internal_layer_id="4" />
				<input external_port_id="9" internal_layer_id="3" />
				<input external_port_id="10" internal_layer_id="2" />
				<input external_port_id="11" internal_layer_id="1" />
				<input external_port_id="12" internal_layer_id="0" />
				<output external_port_id="13" internal_layer_id="140" />
				<output external_port_id="-1" internal_layer_id="14" purpose="execution_condition" />
			</port_map>
			<back_edges>
				<edge from-layer="145" to-layer="10" />
				<edge from-layer="142" to-layer="9" />
				<edge from-layer="141" to-layer="8" />
				<edge from-layer="140" to-layer="7" />
				<edge from-layer="117" to-layer="6" />
				<edge from-layer="94" to-layer="5" />
				<edge from-layer="19" to-layer="4" />
				<edge from-layer="18" to-layer="3" />
				<edge from-layer="17" to-layer="2" />
				<edge from-layer="16" to-layer="1" />
				<edge from-layer="15" to-layer="0" />
			</back_edges>
			<input>
				<port id="0" precision="I32" />
				<port id="1" precision="BOOL" />
				<port id="2" precision="I32" />
				<port id="3" precision="I32" />
				<port id="4" precision="I32" />
				<port id="5" precision="FP32">
					<dim>0</dim>
					<dim>0</dim>
				</port>
				<port id="6" precision="FP32">
					<dim>1</dim>
					<dim>62</dim>
					<dim>62</dim>
					<dim>4</dim>
				</port>
				<port id="7" precision="FP32">
					<dim>1</dim>
					<dim>62</dim>
					<dim>62</dim>
					<dim>4</dim>
				</port>
				<port id="8" precision="I32" />
				<port id="9" precision="FP32">
					<dim>25</dim>
					<dim>1</dim>
					<dim>64</dim>
					<dim>64</dim>
					<dim>3</dim>
				</port>
				<port id="10" precision="FP32">
					<dim>3</dim>
					<dim>3</dim>
					<dim>3</dim>
					<dim>16</dim>
				</port>
				<port id="11" precision="FP32">
					<dim>3</dim>
					<dim>3</dim>
					<dim>4</dim>
					<dim>16</dim>
				</port>
				<port id="12" precision="FP32">
					<dim>16</dim>
				</port>
			</input>
			<output>
				<port id="13" precision="FP32" names="sequential_1/conv_lstm2d/while:3">
					<dim>-1</dim>
					<dim>15376</dim>
				</port>
			</output>
			<body>
				<layers>
					<layer id="10" name="sequential_1_conv_lstm2d_while_sequential_1_conv_lstm2d_while_loop_counter" type="Parameter" version="opset1">
						<data shape="" element_type="i32" />
						<rt_info>
							<attribute name="fused_names" version="0" value="sequential_1_conv_lstm2d_while_sequential_1_conv_lstm2d_while_loop_counter" />
						</rt_info>
						<output>
							<port id="0" precision="I32" />
						</output>
					</layer>
					<layer id="9" name="sequential_1_conv_lstm2d_while_sequential_1_conv_lstm2d_while_maximum_iterations" type="Parameter" version="opset1">
						<data shape="" element_type="i32" />
						<rt_info>
							<attribute name="fused_names" version="0" value="sequential_1_conv_lstm2d_while_sequential_1_conv_lstm2d_while_maximum_iterations" />
						</rt_info>
						<output>
							<port id="0" precision="I32" />
						</output>
					</layer>
					<layer id="8" name="sequential_1_conv_lstm2d_while_placeholder" type="Parameter" version="opset1">
						<data shape="" element_type="i32" />
						<rt_info>
							<attribute name="fused_names" version="0" value="sequential_1_conv_lstm2d_while_placeholder" />
						</rt_info>
						<output>
							<port id="0" precision="I32" />
						</output>
					</layer>
					<layer id="7" name="sequential_1_conv_lstm2d_while_placeholder_1" type="Parameter" version="opset1">
						<data shape="?,?" element_type="f32" />
						<rt_info>
							<attribute name="fused_names" version="0" value="sequential_1_conv_lstm2d_while_placeholder_1" />
							<attribute name="old_api_map_element_type" version="0" value="f16" />
						</rt_info>
						<output>
							<port id="0" precision="FP32">
								<dim>-1</dim>
								<dim>-1</dim>
							</port>
						</output>
					</layer>
					<layer id="6" name="sequential_1_conv_lstm2d_while_placeholder_2" type="Parameter" version="opset1">
						<data shape="1,62,62,4" element_type="f32" />
						<rt_info>
							<attribute name="fused_names" version="0" value="sequential_1_conv_lstm2d_while_placeholder_2" />
							<attribute name="old_api_map_element_type" version="0" value="f16" />
						</rt_info>
						<output>
							<port id="0" precision="FP32">
								<dim>1</dim>
								<dim>62</dim>
								<dim>62</dim>
								<dim>4</dim>
							</port>
						</output>
					</layer>
					<layer id="5" name="sequential_1_conv_lstm2d_while_placeholder_3" type="Parameter" version="opset1">
						<data shape="1,62,62,4" element_type="f32" />
						<rt_info>
							<attribute name="fused_names" version="0" value="sequential_1_conv_lstm2d_while_placeholder_3" />
							<attribute name="old_api_map_element_type" version="0" value="f16" />
						</rt_info>
						<output>
							<port id="0" precision="FP32">
								<dim>1</dim>
								<dim>62</dim>
								<dim>62</dim>
								<dim>4</dim>
							</port>
						</output>
					</layer>
					<layer id="4" name="sequential_1_conv_lstm2d_while_sequential_1_conv_lstm2d_strided_slice_0" type="Parameter" version="opset1">
						<data shape="" element_type="i32" />
						<rt_info>
							<attribute name="fused_names" version="0" value="sequential_1_conv_lstm2d_while_sequential_1_conv_lstm2d_strided_slice_0" />
						</rt_info>
						<output>
							<port id="0" precision="I32" />
						</output>
					</layer>
					<layer id="3" name="sequential_1_conv_lstm2d_while_tensorarrayv2read_tensorlistgetitem_sequential_1_conv_lstm2d_tensorarrayunstack_tensorlistfromtensor_0" type="Parameter" version="opset1">
						<data shape="25,1,64,64,3" element_type="f32" />
						<rt_info>
							<attribute name="fused_names" version="0" value="sequential_1_conv_lstm2d_while_tensorarrayv2read_tensorlistgetitem_sequential_1_conv_lstm2d_tensorarrayunstack_tensorlistfromtensor_0" />
							<attribute name="old_api_map_element_type" version="0" value="f16" />
						</rt_info>
						<output>
							<port id="0" precision="FP32">
								<dim>25</dim>
								<dim>1</dim>
								<dim>64</dim>
								<dim>64</dim>
								<dim>3</dim>
							</port>
						</output>
					</layer>
					<layer id="2" name="sequential_1_conv_lstm2d_while_split_readvariableop_resource_0" type="Parameter" version="opset1">
						<data shape="3,3,3,16" element_type="f32" />
						<rt_info>
							<attribute name="fused_names" version="0" value="sequential_1_conv_lstm2d_while_split_readvariableop_resource_0" />
							<attribute name="old_api_map_element_type" version="0" value="f16" />
						</rt_info>
						<output>
							<port id="0" precision="FP32">
								<dim>3</dim>
								<dim>3</dim>
								<dim>3</dim>
								<dim>16</dim>
							</port>
						</output>
					</layer>
					<layer id="1" name="sequential_1_conv_lstm2d_while_split_1_readvariableop_resource_0" type="Parameter" version="opset1">
						<data shape="3,3,4,16" element_type="f32" />
						<rt_info>
							<attribute name="fused_names" version="0" value="sequential_1_conv_lstm2d_while_split_1_readvariableop_resource_0" />
							<attribute name="old_api_map_element_type" version="0" value="f16" />
						</rt_info>
						<output>
							<port id="0" precision="FP32">
								<dim>3</dim>
								<dim>3</dim>
								<dim>4</dim>
								<dim>16</dim>
							</port>
						</output>
					</layer>
					<layer id="0" name="sequential_1_conv_lstm2d_while_split_2_readvariableop_resource_0" type="Parameter" version="opset1">
						<data shape="16" element_type="f32" />
						<rt_info>
							<attribute name="fused_names" version="0" value="Transpose_7088, sequential_1_conv_lstm2d_while_split_2_readvariableop_resource_0" />
							<attribute name="old_api_map_element_type" version="0" value="f16" />
						</rt_info>
						<output>
							<port id="0" precision="FP32">
								<dim>16</dim>
							</port>
						</output>
					</layer>
					<layer id="11" name="sequential_1/conv_lstm2d/while/add_8/y" type="Const" version="opset1">
						<data element_type="i32" shape="" offset="28" size="4" />
						<rt_info>
							<attribute name="fused_names" version="0" value="sequential_1/conv_lstm2d/while/add_8/y" />
						</rt_info>
						<output>
							<port id="0" precision="I32" />
						</output>
					</layer>
					<layer id="12" name="sequential_1/conv_lstm2d/while/add_8" type="Add" version="opset1">
						<data auto_broadcast="numpy" />
						<rt_info>
							<attribute name="fused_names" version="0" value="sequential_1/conv_lstm2d/while/add_8" />
						</rt_info>
						<input>
							<port id="0" precision="I32" />
							<port id="1" precision="I32" />
						</input>
						<output>
							<port id="2" precision="I32" />
						</output>
					</layer>
					<layer id="13" name="sequential_1/conv_lstm2d/while/Less" type="Less" version="opset1">
						<data auto_broadcast="numpy" />
						<rt_info>
							<attribute name="fused_names" version="0" value="sequential_1/conv_lstm2d/while/Less" />
						</rt_info>
						<input>
							<port id="0" precision="I32" />
							<port id="1" precision="I32" />
						</input>
						<output>
							<port id="2" precision="BOOL" />
						</output>
					</layer>
					<layer id="20" name="Constant_7051" type="Const" version="opset1">
						<data element_type="i64" shape="5" offset="2379" size="40" />
						<rt_info>
							<attribute name="fused_names" version="0" value="Constant_7051" />
						</rt_info>
						<output>
							<port id="0" precision="I64">
								<dim>5</dim>
							</port>
						</output>
					</layer>
					<layer id="21" name="Transpose_7052" type="Transpose" version="opset1">
						<rt_info>
							<attribute name="fused_names" version="0" value="Transpose_7052" />
						</rt_info>
						<input>
							<port id="0" precision="FP32">
								<dim>25</dim>
								<dim>1</dim>
								<dim>64</dim>
								<dim>64</dim>
								<dim>3</dim>
							</port>
							<port id="1" precision="I64">
								<dim>5</dim>
							</port>
						</input>
						<output>
							<port id="2" precision="FP32">
								<dim>25</dim>
								<dim>1</dim>
								<dim>3</dim>
								<dim>64</dim>
								<dim>64</dim>
							</port>
						</output>
					</layer>
					<layer id="22" name="Squeeze_155" type="Squeeze" version="opset1">
						<rt_info>
							<attribute name="fused_names" version="0" value="Squeeze_155, Squeeze_251" />
						</rt_info>
						<input>
							<port id="0" precision="I32" />
						</input>
						<output>
							<port id="1" precision="I32" />
						</output>
					</layer>
					<layer id="23" name="Constant_7049" type="Const" version="opset1">
						<data element_type="i32" shape="1" offset="4" size="4" />
						<rt_info>
							<attribute name="fused_names" version="0" value="Constant_7049" />
						</rt_info>
						<output>
							<port id="0" precision="I32">
								<dim>1</dim>
							</port>
						</output>
					</layer>
					<layer id="24" name="Transpose_7047" type="Gather" version="opset8">
						<data batch_dims="0" />
						<rt_info>
							<attribute name="fused_names" version="0" value="Transpose_160, Transpose_7047" />
						</rt_info>
						<input>
							<port id="0" precision="FP32">
								<dim>25</dim>
								<dim>1</dim>
								<dim>3</dim>
								<dim>64</dim>
								<dim>64</dim>
							</port>
							<port id="1" precision="I32" />
							<port id="2" precision="I32">
								<dim>1</dim>
							</port>
						</input>
						<output>
							<port id="3" precision="FP32">
								<dim>1</dim>
								<dim>3</dim>
								<dim>64</dim>
								<dim>64</dim>
							</port>
						</output>
					</layer>
					<layer id="25" name="Constant_7053" type="Const" version="opset1">
						<data element_type="i64" shape="4" offset="2419" size="32" />
						<rt_info>
							<attribute name="fused_names" version="0" value="Constant_7053" />
						</rt_info>
						<output>
							<port id="0" precision="I64">
								<dim>4</dim>
							</port>
						</output>
					</layer>
					<layer id="26" name="Transpose_7054" type="Transpose" version="opset1">
						<rt_info>
							<attribute name="fused_names" version="0" value="Transpose_7054" />
						</rt_info>
						<input>
							<port id="0" precision="FP32">
								<dim>3</dim>
								<dim>3</dim>
								<dim>3</dim>
								<dim>16</dim>
							</port>
							<port id="1" precision="I64">
								<dim>4</dim>
							</port>
						</input>
						<output>
							<port id="2" precision="FP32">
								<dim>16</dim>
								<dim>3</dim>
								<dim>3</dim>
								<dim>3</dim>
							</port>
						</output>
					</layer>
					<layer id="27" name="Constant_7055" type="Const" version="opset1">
						<data element_type="i32" shape="" offset="4" size="4" />
						<rt_info>
							<attribute name="fused_names" version="0" value="Constant_7055" />
						</rt_info>
						<output>
							<port id="0" precision="I32" />
						</output>
					</layer>
					<layer id="28" name="Transpose_184" type="Split" version="opset1">
						<data num_splits="4" />
						<rt_info>
							<attribute name="fused_names" version="0" value="Transpose_184" />
						</rt_info>
						<input>
							<port id="0" precision="FP32">
								<dim>16</dim>
								<dim>3</dim>
								<dim>3</dim>
								<dim>3</dim>
							</port>
							<port id="1" precision="I32" />
						</input>
						<output>
							<port id="2" precision="FP32">
								<dim>4</dim>
								<dim>3</dim>
								<dim>3</dim>
								<dim>3</dim>
							</port>
							<port id="3" precision="FP32">
								<dim>4</dim>
								<dim>3</dim>
								<dim>3</dim>
								<dim>3</dim>
							</port>
							<port id="4" precision="FP32">
								<dim>4</dim>
								<dim>3</dim>
								<dim>3</dim>
								<dim>3</dim>
							</port>
							<port id="5" precision="FP32">
								<dim>4</dim>
								<dim>3</dim>
								<dim>3</dim>
								<dim>3</dim>
							</port>
						</output>
					</layer>
					<layer id="29" name="Convolution_211" type="Convolution" version="opset1">
						<data strides="1, 1" dilations="1, 1" pads_begin="0, 0" pads_end="0, 0" auto_pad="valid" />
						<rt_info>
							<attribute name="fused_names" version="0" value="Convolution_211" />
						</rt_info>
						<input>
							<port id="0" precision="FP32">
								<dim>1</dim>
								<dim>3</dim>
								<dim>64</dim>
								<dim>64</dim>
							</port>
							<port id="1" precision="FP32">
								<dim>4</dim>
								<dim>3</dim>
								<dim>3</dim>
								<dim>3</dim>
							</port>
						</input>
						<output>
							<port id="2" precision="FP32">
								<dim>1</dim>
								<dim>4</dim>
								<dim>62</dim>
								<dim>62</dim>
							</port>
						</output>
					</layer>
					<layer id="30" name="Constant_7089" type="Const" version="opset1">
						<data element_type="i32" shape="" offset="4" size="4" />
						<rt_info>
							<attribute name="fused_names" version="0" value="Constant_7089" />
						</rt_info>
						<output>
							<port id="0" precision="I32" />
						</output>
					</layer>
					<layer id="31" name="Transpose_7069" type="Split" version="opset1">
						<data num_splits="4" />
						<rt_info>
							<attribute name="fused_names" version="0" value="Transpose_7069" />
						</rt_info>
						<input>
							<port id="0" precision="FP32">
								<dim>16</dim>
							</port>
							<port id="1" precision="I32" />
						</input>
						<output>
							<port id="2" precision="FP32">
								<dim>4</dim>
							</port>
							<port id="3" precision="FP32">
								<dim>4</dim>
							</port>
							<port id="4" precision="FP32">
								<dim>4</dim>
							</port>
							<port id="5" precision="FP32">
								<dim>4</dim>
							</port>
						</output>
					</layer>
					<layer id="32" name="Constant_7059" type="Const" version="opset1">
						<data element_type="i64" shape="3" offset="2451" size="24" />
						<rt_info>
							<attribute name="fused_names" version="0" value="Constant_7059" />
						</rt_info>
						<output>
							<port id="0" precision="I64">
								<dim>3</dim>
							</port>
						</output>
					</layer>
					<layer id="33" name="Transpose_5780" type="Unsqueeze" version="opset1">
						<rt_info>
							<attribute name="fused_names" version="0" value="Transpose_5780" />
						</rt_info>
						<input>
							<port id="0" precision="FP32">
								<dim>4</dim>
							</port>
							<port id="1" precision="I64">
								<dim>3</dim>
							</port>
						</input>
						<output>
							<port id="2" precision="FP32">
								<dim>1</dim>
								<dim>4</dim>
								<dim>1</dim>
								<dim>1</dim>
							</port>
						</output>
					</layer>
					<layer id="34" name="Transpose_5782" type="Add" version="opset1">
						<data auto_broadcast="numpy" />
						<rt_info>
							<attribute name="fused_names" version="0" value="Transpose_5782" />
						</rt_info>
						<input>
							<port id="0" precision="FP32">
								<dim>1</dim>
								<dim>4</dim>
								<dim>62</dim>
								<dim>62</dim>
							</port>
							<port id="1" precision="FP32">
								<dim>1</dim>
								<dim>4</dim>
								<dim>1</dim>
								<dim>1</dim>
							</port>
						</input>
						<output>
							<port id="2" precision="FP32">
								<dim>1</dim>
								<dim>4</dim>
								<dim>62</dim>
								<dim>62</dim>
							</port>
						</output>
					</layer>
					<layer id="35" name="Constant_7060" type="Const" version="opset1">
						<data element_type="i64" shape="4" offset="51" size="32" />
						<rt_info>
							<attribute name="fused_names" version="0" value="Constant_7060" />
						</rt_info>
						<output>
							<port id="0" precision="I64">
								<dim>4</dim>
							</port>
						</output>
					</layer>
					<layer id="36" name="Transpose_7061" type="Transpose" version="opset1">
						<rt_info>
							<attribute name="fused_names" version="0" value="Transpose_7061" />
						</rt_info>
						<input>
							<port id="0" precision="FP32">
								<dim>1</dim>
								<dim>62</dim>
								<dim>62</dim>
								<dim>4</dim>
							</port>
							<port id="1" precision="I64">
								<dim>4</dim>
							</port>
						</input>
						<output>
							<port id="2" precision="FP32">
								<dim>1</dim>
								<dim>4</dim>
								<dim>62</dim>
								<dim>62</dim>
							</port>
						</output>
					</layer>
					<layer id="37" name="sequential_1/conv_lstm2d/while/ones_like/Const_compressed" type="Const" version="opset1">
						<data element_type="f16" shape="" offset="2475" size="2" />
						<rt_info>
							<attribute name="fused_names" version="0" value="sequential_1/conv_lstm2d/while/ones_like/Const" />
						</rt_info>
						<output>
							<port id="0" precision="FP16" />
						</output>
					</layer>
					<layer id="38" name="sequential_1/conv_lstm2d/while/ones_like/Const" type="Convert" version="opset1">
						<data destination_type="f32" />
						<rt_info>
							<attribute name="decompression" version="0" />
							<attribute name="fused_names" version="0" value="sequential_1/conv_lstm2d/while/ones_like/Const" />
						</rt_info>
						<input>
							<port id="0" precision="FP16" />
						</input>
						<output>
							<port id="1" precision="FP32" />
						</output>
					</layer>
					<layer id="39" name="sequential_1/conv_lstm2d/while/ones_like/Shape" type="ShapeOf" version="opset3">
						<data output_type="i32" />
						<rt_info>
							<attribute name="fused_names" version="0" value="sequential_1/conv_lstm2d/while/ones_like/Shape" />
						</rt_info>
						<input>
							<port id="0" precision="FP32">
								<dim>1</dim>
								<dim>62</dim>
								<dim>62</dim>
								<dim>4</dim>
							</port>
						</input>
						<output>
							<port id="1" precision="I32">
								<dim>4</dim>
							</port>
						</output>
					</layer>
					<layer id="40" name="sequential_1/conv_lstm2d/while/ones_like" type="Broadcast" version="opset3">
						<data mode="numpy" />
						<rt_info>
							<attribute name="fused_names" version="0" value="sequential_1/conv_lstm2d/while/ones_like" />
						</rt_info>
						<input>
							<port id="0" precision="FP32" />
							<port id="1" precision="I32">
								<dim>4</dim>
							</port>
						</input>
						<output>
							<port id="2" precision="FP32">
								<dim>1</dim>
								<dim>62</dim>
								<dim>62</dim>
								<dim>4</dim>
							</port>
						</output>
					</layer>
					<layer id="41" name="Constant_7062" type="Const" version="opset1">
						<data element_type="i64" shape="4" offset="51" size="32" />
						<rt_info>
							<attribute name="fused_names" version="0" value="Constant_7062" />
						</rt_info>
						<output>
							<port id="0" precision="I64">
								<dim>4</dim>
							</port>
						</output>
					</layer>
					<layer id="42" name="Transpose_7063" type="Transpose" version="opset1">
						<rt_info>
							<attribute name="fused_names" version="0" value="Transpose_7063" />
						</rt_info>
						<input>
							<port id="0" precision="FP32">
								<dim>1</dim>
								<dim>62</dim>
								<dim>62</dim>
								<dim>4</dim>
							</port>
							<port id="1" precision="I64">
								<dim>4</dim>
							</port>
						</input>
						<output>
							<port id="2" precision="FP32">
								<dim>1</dim>
								<dim>4</dim>
								<dim>62</dim>
								<dim>62</dim>
							</port>
						</output>
					</layer>
					<layer id="43" name="Transpose_201" type="Multiply" version="opset1">
						<data auto_broadcast="numpy" />
						<rt_info>
							<attribute name="fused_names" version="0" value="Transpose_201" />
						</rt_info>
						<input>
							<port id="0" precision="FP32">
								<dim>1</dim>
								<dim>4</dim>
								<dim>62</dim>
								<dim>62</dim>
							</port>
							<port id="1" precision="FP32">
								<dim>1</dim>
								<dim>4</dim>
								<dim>62</dim>
								<dim>62</dim>
							</port>
						</input>
						<output>
							<port id="2" precision="FP32">
								<dim>1</dim>
								<dim>4</dim>
								<dim>62</dim>
								<dim>62</dim>
							</port>
						</output>
					</layer>
					<layer id="44" name="Constant_7064" type="Const" version="opset1">
						<data element_type="i64" shape="4" offset="2419" size="32" />
						<rt_info>
							<attribute name="fused_names" version="0" value="Constant_7064" />
						</rt_info>
						<output>
							<port id="0" precision="I64">
								<dim>4</dim>
							</port>
						</output>
					</layer>
					<layer id="45" name="Transpose_7065" type="Transpose" version="opset1">
						<rt_info>
							<attribute name="fused_names" version="0" value="Transpose_7065" />
						</rt_info>
						<input>
							<port id="0" precision="FP32">
								<dim>3</dim>
								<dim>3</dim>
								<dim>4</dim>
								<dim>16</dim>
							</port>
							<port id="1" precision="I64">
								<dim>4</dim>
							</port>
						</input>
						<output>
							<port id="2" precision="FP32">
								<dim>16</dim>
								<dim>4</dim>
								<dim>3</dim>
								<dim>3</dim>
							</port>
						</output>
					</layer>
					<layer id="46" name="Constant_7066" type="Const" version="opset1">
						<data element_type="i32" shape="" offset="4" size="4" />
						<rt_info>
							<attribute name="fused_names" version="0" value="Constant_7066" />
						</rt_info>
						<output>
							<port id="0" precision="I32" />
						</output>
					</layer>
					<layer id="47" name="Transpose_177" type="Split" version="opset1">
						<data num_splits="4" />
						<rt_info>
							<attribute name="fused_names" version="0" value="Transpose_177" />
						</rt_info>
						<input>
							<port id="0" precision="FP32">
								<dim>16</dim>
								<dim>4</dim>
								<dim>3</dim>
								<dim>3</dim>
							</port>
							<port id="1" precision="I32" />
						</input>
						<output>
							<port id="2" precision="FP32">
								<dim>4</dim>
								<dim>4</dim>
								<dim>3</dim>
								<dim>3</dim>
							</port>
							<port id="3" precision="FP32">
								<dim>4</dim>
								<dim>4</dim>
								<dim>3</dim>
								<dim>3</dim>
							</port>
							<port id="4" precision="FP32">
								<dim>4</dim>
								<dim>4</dim>
								<dim>3</dim>
								<dim>3</dim>
							</port>
							<port id="5" precision="FP32">
								<dim>4</dim>
								<dim>4</dim>
								<dim>3</dim>
								<dim>3</dim>
							</port>
						</output>
					</layer>
					<layer id="48" name="Convolution_204" type="Convolution" version="opset1">
						<data strides="1, 1" dilations="1, 1" pads_begin="0, 0" pads_end="0, 0" auto_pad="same_upper" />
						<rt_info>
							<attribute name="fused_names" version="0" value="Convolution_204" />
						</rt_info>
						<input>
							<port id="0" precision="FP32">
								<dim>1</dim>
								<dim>4</dim>
								<dim>62</dim>
								<dim>62</dim>
							</port>
							<port id="1" precision="FP32">
								<dim>4</dim>
								<dim>4</dim>
								<dim>3</dim>
								<dim>3</dim>
							</port>
						</input>
						<output>
							<port id="2" precision="FP32">
								<dim>1</dim>
								<dim>4</dim>
								<dim>62</dim>
								<dim>62</dim>
							</port>
						</output>
					</layer>
					<layer id="49" name="Transpose_5786" type="Add" version="opset1">
						<data auto_broadcast="numpy" />
						<rt_info>
							<attribute name="fused_names" version="0" value="Transpose_5786" />
						</rt_info>
						<input>
							<port id="0" precision="FP32">
								<dim>1</dim>
								<dim>4</dim>
								<dim>62</dim>
								<dim>62</dim>
							</port>
							<port id="1" precision="FP32">
								<dim>1</dim>
								<dim>4</dim>
								<dim>62</dim>
								<dim>62</dim>
							</port>
						</input>
						<output>
							<port id="2" precision="FP32">
								<dim>1</dim>
								<dim>4</dim>
								<dim>62</dim>
								<dim>62</dim>
							</port>
						</output>
					</layer>
					<layer id="50" name="Transpose_5790_compressed" type="Const" version="opset1">
						<data element_type="f16" shape="1, 1, 1, 1" offset="2477" size="2" />
						<rt_info>
							<attribute name="fused_names" version="0" value="Transpose_5790" />
						</rt_info>
						<output>
							<port id="0" precision="FP16">
								<dim>1</dim>
								<dim>1</dim>
								<dim>1</dim>
								<dim>1</dim>
							</port>
						</output>
					</layer>
					<layer id="51" name="Transpose_5790" type="Convert" version="opset1">
						<data destination_type="f32" />
						<rt_info>
							<attribute name="decompression" version="0" />
							<attribute name="fused_names" version="0" value="Transpose_5790" />
						</rt_info>
						<input>
							<port id="0" precision="FP16">
								<dim>1</dim>
								<dim>1</dim>
								<dim>1</dim>
								<dim>1</dim>
							</port>
						</input>
						<output>
							<port id="1" precision="FP32">
								<dim>1</dim>
								<dim>1</dim>
								<dim>1</dim>
								<dim>1</dim>
							</port>
						</output>
					</layer>
					<layer id="52" name="Transpose_5792" type="Multiply" version="opset1">
						<data auto_broadcast="numpy" />
						<rt_info>
							<attribute name="fused_names" version="0" value="Transpose_5792" />
						</rt_info>
						<input>
							<port id="0" precision="FP32">
								<dim>1</dim>
								<dim>4</dim>
								<dim>62</dim>
								<dim>62</dim>
							</port>
							<port id="1" precision="FP32">
								<dim>1</dim>
								<dim>1</dim>
								<dim>1</dim>
								<dim>1</dim>
							</port>
						</input>
						<output>
							<port id="2" precision="FP32">
								<dim>1</dim>
								<dim>4</dim>
								<dim>62</dim>
								<dim>62</dim>
							</port>
						</output>
					</layer>
					<layer id="53" name="Transpose_5796_compressed" type="Const" version="opset1">
						<data element_type="f16" shape="1, 1, 1, 1" offset="2479" size="2" />
						<rt_info>
							<attribute name="fused_names" version="0" value="Transpose_5796" />
						</rt_info>
						<output>
							<port id="0" precision="FP16">
								<dim>1</dim>
								<dim>1</dim>
								<dim>1</dim>
								<dim>1</dim>
							</port>
						</output>
					</layer>
					<layer id="54" name="Transpose_5796" type="Convert" version="opset1">
						<data destination_type="f32" />
						<rt_info>
							<attribute name="decompression" version="0" />
							<attribute name="fused_names" version="0" value="Transpose_5796" />
						</rt_info>
						<input>
							<port id="0" precision="FP16">
								<dim>1</dim>
								<dim>1</dim>
								<dim>1</dim>
								<dim>1</dim>
							</port>
						</input>
						<output>
							<port id="1" precision="FP32">
								<dim>1</dim>
								<dim>1</dim>
								<dim>1</dim>
								<dim>1</dim>
							</port>
						</output>
					</layer>
					<layer id="55" name="Transpose_5798" type="Add" version="opset1">
						<data auto_broadcast="numpy" />
						<rt_info>
							<attribute name="fused_names" version="0" value="Transpose_5798" />
						</rt_info>
						<input>
							<port id="0" precision="FP32">
								<dim>1</dim>
								<dim>4</dim>
								<dim>62</dim>
								<dim>62</dim>
							</port>
							<port id="1" precision="FP32">
								<dim>1</dim>
								<dim>1</dim>
								<dim>1</dim>
								<dim>1</dim>
							</port>
						</input>
						<output>
							<port id="2" precision="FP32">
								<dim>1</dim>
								<dim>4</dim>
								<dim>62</dim>
								<dim>62</dim>
							</port>
						</output>
					</layer>
					<layer id="56" name="Transpose_5810" type="Clamp" version="opset1">
						<data min="0" max="1" />
						<rt_info>
							<attribute name="fused_names" version="0" value="Transpose_5804, Transpose_5810" />
						</rt_info>
						<input>
							<port id="0" precision="FP32">
								<dim>1</dim>
								<dim>4</dim>
								<dim>62</dim>
								<dim>62</dim>
							</port>
						</input>
						<output>
							<port id="1" precision="FP32">
								<dim>1</dim>
								<dim>4</dim>
								<dim>62</dim>
								<dim>62</dim>
							</port>
						</output>
					</layer>
					<layer id="57" name="Constant_5811" type="Const" version="opset1">
						<data element_type="i64" shape="4" offset="51" size="32" />
						<rt_info>
							<attribute name="fused_names" version="0" value="Constant_5811" />
						</rt_info>
						<output>
							<port id="0" precision="I64">
								<dim>4</dim>
							</port>
						</output>
					</layer>
					<layer id="58" name="Transpose_5812" type="Transpose" version="opset1">
						<rt_info>
							<attribute name="fused_names" version="0" value="Transpose_5812" />
						</rt_info>
						<input>
							<port id="0" precision="FP32">
								<dim>1</dim>
								<dim>62</dim>
								<dim>62</dim>
								<dim>4</dim>
							</port>
							<port id="1" precision="I64">
								<dim>4</dim>
							</port>
						</input>
						<output>
							<port id="2" precision="FP32">
								<dim>1</dim>
								<dim>4</dim>
								<dim>62</dim>
								<dim>62</dim>
							</port>
						</output>
					</layer>
					<layer id="59" name="Transpose_5814" type="Multiply" version="opset1">
						<data auto_broadcast="numpy" />
						<rt_info>
							<attribute name="fused_names" version="0" value="Transpose_5814" />
						</rt_info>
						<input>
							<port id="0" precision="FP32">
								<dim>1</dim>
								<dim>4</dim>
								<dim>62</dim>
								<dim>62</dim>
							</port>
							<port id="1" precision="FP32">
								<dim>1</dim>
								<dim>4</dim>
								<dim>62</dim>
								<dim>62</dim>
							</port>
						</input>
						<output>
							<port id="2" precision="FP32">
								<dim>1</dim>
								<dim>4</dim>
								<dim>62</dim>
								<dim>62</dim>
							</port>
						</output>
					</layer>
					<layer id="60" name="Convolution_185" type="Convolution" version="opset1">
						<data strides="1, 1" dilations="1, 1" pads_begin="0, 0" pads_end="0, 0" auto_pad="valid" />
						<rt_info>
							<attribute name="fused_names" version="0" value="Convolution_185" />
						</rt_info>
						<input>
							<port id="0" precision="FP32">
								<dim>1</dim>
								<dim>3</dim>
								<dim>64</dim>
								<dim>64</dim>
							</port>
							<port id="1" precision="FP32">
								<dim>4</dim>
								<dim>3</dim>
								<dim>3</dim>
								<dim>3</dim>
							</port>
						</input>
						<output>
							<port id="2" precision="FP32">
								<dim>1</dim>
								<dim>4</dim>
								<dim>62</dim>
								<dim>62</dim>
							</port>
						</output>
					</layer>
					<layer id="61" name="Constant_7070" type="Const" version="opset1">
						<data element_type="i64" shape="3" offset="2451" size="24" />
						<rt_info>
							<attribute name="fused_names" version="0" value="Constant_7070" />
						</rt_info>
						<output>
							<port id="0" precision="I64">
								<dim>3</dim>
							</port>
						</output>
					</layer>
					<layer id="62" name="Transpose_5818" type="Unsqueeze" version="opset1">
						<rt_info>
							<attribute name="fused_names" version="0" value="Transpose_5818" />
						</rt_info>
						<input>
							<port id="0" precision="FP32">
								<dim>4</dim>
							</port>
							<port id="1" precision="I64">
								<dim>3</dim>
							</port>
						</input>
						<output>
							<port id="2" precision="FP32">
								<dim>1</dim>
								<dim>4</dim>
								<dim>1</dim>
								<dim>1</dim>
							</port>
						</output>
					</layer>
					<layer id="63" name="Transpose_5820" type="Add" version="opset1">
						<data auto_broadcast="numpy" />
						<rt_info>
							<attribute name="fused_names" version="0" value="Transpose_5820" />
						</rt_info>
						<input>
							<port id="0" precision="FP32">
								<dim>1</dim>
								<dim>4</dim>
								<dim>62</dim>
								<dim>62</dim>
							</port>
							<port id="1" precision="FP32">
								<dim>1</dim>
								<dim>4</dim>
								<dim>1</dim>
								<dim>1</dim>
							</port>
						</input>
						<output>
							<port id="2" precision="FP32">
								<dim>1</dim>
								<dim>4</dim>
								<dim>62</dim>
								<dim>62</dim>
							</port>
						</output>
					</layer>
					<layer id="64" name="Constant_7071" type="Const" version="opset1">
						<data element_type="i64" shape="4" offset="51" size="32" />
						<rt_info>
							<attribute name="fused_names" version="0" value="Constant_7071" />
						</rt_info>
						<output>
							<port id="0" precision="I64">
								<dim>4</dim>
							</port>
						</output>
					</layer>
					<layer id="65" name="Transpose_7072" type="Transpose" version="opset1">
						<rt_info>
							<attribute name="fused_names" version="0" value="Transpose_7072" />
						</rt_info>
						<input>
							<port id="0" precision="FP32">
								<dim>1</dim>
								<dim>62</dim>
								<dim>62</dim>
								<dim>4</dim>
							</port>
							<port id="1" precision="I64">
								<dim>4</dim>
							</port>
						</input>
						<output>
							<port id="2" precision="FP32">
								<dim>1</dim>
								<dim>4</dim>
								<dim>62</dim>
								<dim>62</dim>
							</port>
						</output>
					</layer>
					<layer id="66" name="Constant_7073" type="Const" version="opset1">
						<data element_type="i64" shape="4" offset="51" size="32" />
						<rt_info>
							<attribute name="fused_names" version="0" value="Constant_7073" />
						</rt_info>
						<output>
							<port id="0" precision="I64">
								<dim>4</dim>
							</port>
						</output>
					</layer>
					<layer id="67" name="Transpose_7074" type="Transpose" version="opset1">
						<rt_info>
							<attribute name="fused_names" version="0" value="Transpose_7074" />
						</rt_info>
						<input>
							<port id="0" precision="FP32">
								<dim>1</dim>
								<dim>62</dim>
								<dim>62</dim>
								<dim>4</dim>
							</port>
							<port id="1" precision="I64">
								<dim>4</dim>
							</port>
						</input>
						<output>
							<port id="2" precision="FP32">
								<dim>1</dim>
								<dim>4</dim>
								<dim>62</dim>
								<dim>62</dim>
							</port>
						</output>
					</layer>
					<layer id="68" name="Transpose_175" type="Multiply" version="opset1">
						<data auto_broadcast="numpy" />
						<rt_info>
							<attribute name="fused_names" version="0" value="Transpose_175" />
						</rt_info>
						<input>
							<port id="0" precision="FP32">
								<dim>1</dim>
								<dim>4</dim>
								<dim>62</dim>
								<dim>62</dim>
							</port>
							<port id="1" precision="FP32">
								<dim>1</dim>
								<dim>4</dim>
								<dim>62</dim>
								<dim>62</dim>
							</port>
						</input>
						<output>
							<port id="2" precision="FP32">
								<dim>1</dim>
								<dim>4</dim>
								<dim>62</dim>
								<dim>62</dim>
							</port>
						</output>
					</layer>
					<layer id="69" name="Convolution_178" type="Convolution" version="opset1">
						<data strides="1, 1" dilations="1, 1" pads_begin="0, 0" pads_end="0, 0" auto_pad="same_upper" />
						<rt_info>
							<attribute name="fused_names" version="0" value="Convolution_178" />
						</rt_info>
						<input>
							<port id="0" precision="FP32">
								<dim>1</dim>
								<dim>4</dim>
								<dim>62</dim>
								<dim>62</dim>
							</port>
							<port id="1" precision="FP32">
								<dim>4</dim>
								<dim>4</dim>
								<dim>3</dim>
								<dim>3</dim>
							</port>
						</input>
						<output>
							<port id="2" precision="FP32">
								<dim>1</dim>
								<dim>4</dim>
								<dim>62</dim>
								<dim>62</dim>
							</port>
						</output>
					</layer>
					<layer id="70" name="Transpose_5824" type="Add" version="opset1">
						<data auto_broadcast="numpy" />
						<rt_info>
							<attribute name="fused_names" version="0" value="Transpose_5824" />
						</rt_info>
						<input>
							<port id="0" precision="FP32">
								<dim>1</dim>
								<dim>4</dim>
								<dim>62</dim>
								<dim>62</dim>
							</port>
							<port id="1" precision="FP32">
								<dim>1</dim>
								<dim>4</dim>
								<dim>62</dim>
								<dim>62</dim>
							</port>
						</input>
						<output>
							<port id="2" precision="FP32">
								<dim>1</dim>
								<dim>4</dim>
								<dim>62</dim>
								<dim>62</dim>
							</port>
						</output>
					</layer>
					<layer id="71" name="Transpose_5828_compressed" type="Const" version="opset1">
						<data element_type="f16" shape="1, 1, 1, 1" offset="2477" size="2" />
						<rt_info>
							<attribute name="fused_names" version="0" value="Transpose_5828" />
						</rt_info>
						<output>
							<port id="0" precision="FP16">
								<dim>1</dim>
								<dim>1</dim>
								<dim>1</dim>
								<dim>1</dim>
							</port>
						</output>
					</layer>
					<layer id="72" name="Transpose_5828" type="Convert" version="opset1">
						<data destination_type="f32" />
						<rt_info>
							<attribute name="decompression" version="0" />
							<attribute name="fused_names" version="0" value="Transpose_5828" />
						</rt_info>
						<input>
							<port id="0" precision="FP16">
								<dim>1</dim>
								<dim>1</dim>
								<dim>1</dim>
								<dim>1</dim>
							</port>
						</input>
						<output>
							<port id="1" precision="FP32">
								<dim>1</dim>
								<dim>1</dim>
								<dim>1</dim>
								<dim>1</dim>
							</port>
						</output>
					</layer>
					<layer id="73" name="Transpose_5830" type="Multiply" version="opset1">
						<data auto_broadcast="numpy" />
						<rt_info>
							<attribute name="fused_names" version="0" value="Transpose_5830" />
						</rt_info>
						<input>
							<port id="0" precision="FP32">
								<dim>1</dim>
								<dim>4</dim>
								<dim>62</dim>
								<dim>62</dim>
							</port>
							<port id="1" precision="FP32">
								<dim>1</dim>
								<dim>1</dim>
								<dim>1</dim>
								<dim>1</dim>
							</port>
						</input>
						<output>
							<port id="2" precision="FP32">
								<dim>1</dim>
								<dim>4</dim>
								<dim>62</dim>
								<dim>62</dim>
							</port>
						</output>
					</layer>
					<layer id="74" name="Transpose_5834_compressed" type="Const" version="opset1">
						<data element_type="f16" shape="1, 1, 1, 1" offset="2479" size="2" />
						<rt_info>
							<attribute name="fused_names" version="0" value="Transpose_5834" />
						</rt_info>
						<output>
							<port id="0" precision="FP16">
								<dim>1</dim>
								<dim>1</dim>
								<dim>1</dim>
								<dim>1</dim>
							</port>
						</output>
					</layer>
					<layer id="75" name="Transpose_5834" type="Convert" version="opset1">
						<data destination_type="f32" />
						<rt_info>
							<attribute name="decompression" version="0" />
							<attribute name="fused_names" version="0" value="Transpose_5834" />
						</rt_info>
						<input>
							<port id="0" precision="FP16">
								<dim>1</dim>
								<dim>1</dim>
								<dim>1</dim>
								<dim>1</dim>
							</port>
						</input>
						<output>
							<port id="1" precision="FP32">
								<dim>1</dim>
								<dim>1</dim>
								<dim>1</dim>
								<dim>1</dim>
							</port>
						</output>
					</layer>
					<layer id="76" name="Transpose_5836" type="Add" version="opset1">
						<data auto_broadcast="numpy" />
						<rt_info>
							<attribute name="fused_names" version="0" value="Transpose_5836" />
						</rt_info>
						<input>
							<port id="0" precision="FP32">
								<dim>1</dim>
								<dim>4</dim>
								<dim>62</dim>
								<dim>62</dim>
							</port>
							<port id="1" precision="FP32">
								<dim>1</dim>
								<dim>1</dim>
								<dim>1</dim>
								<dim>1</dim>
							</port>
						</input>
						<output>
							<port id="2" precision="FP32">
								<dim>1</dim>
								<dim>4</dim>
								<dim>62</dim>
								<dim>62</dim>
							</port>
						</output>
					</layer>
					<layer id="77" name="Transpose_5848" type="Clamp" version="opset1">
						<data min="0" max="1" />
						<rt_info>
							<attribute name="fused_names" version="0" value="Transpose_5842, Transpose_5848" />
						</rt_info>
						<input>
							<port id="0" precision="FP32">
								<dim>1</dim>
								<dim>4</dim>
								<dim>62</dim>
								<dim>62</dim>
							</port>
						</input>
						<output>
							<port id="1" precision="FP32">
								<dim>1</dim>
								<dim>4</dim>
								<dim>62</dim>
								<dim>62</dim>
							</port>
						</output>
					</layer>
					<layer id="78" name="Convolution_163" type="Convolution" version="opset1">
						<data strides="1, 1" dilations="1, 1" pads_begin="0, 0" pads_end="0, 0" auto_pad="valid" />
						<rt_info>
							<attribute name="fused_names" version="0" value="Convolution_163" />
						</rt_info>
						<input>
							<port id="0" precision="FP32">
								<dim>1</dim>
								<dim>3</dim>
								<dim>64</dim>
								<dim>64</dim>
							</port>
							<port id="1" precision="FP32">
								<dim>4</dim>
								<dim>3</dim>
								<dim>3</dim>
								<dim>3</dim>
							</port>
						</input>
						<output>
							<port id="2" precision="FP32">
								<dim>1</dim>
								<dim>4</dim>
								<dim>62</dim>
								<dim>62</dim>
							</port>
						</output>
					</layer>
					<layer id="79" name="Constant_7078" type="Const" version="opset1">
						<data element_type="i64" shape="3" offset="2451" size="24" />
						<rt_info>
							<attribute name="fused_names" version="0" value="Constant_7078" />
						</rt_info>
						<output>
							<port id="0" precision="I64">
								<dim>3</dim>
							</port>
						</output>
					</layer>
					<layer id="80" name="Transpose_5852" type="Unsqueeze" version="opset1">
						<rt_info>
							<attribute name="fused_names" version="0" value="Transpose_5852" />
						</rt_info>
						<input>
							<port id="0" precision="FP32">
								<dim>4</dim>
							</port>
							<port id="1" precision="I64">
								<dim>3</dim>
							</port>
						</input>
						<output>
							<port id="2" precision="FP32">
								<dim>1</dim>
								<dim>4</dim>
								<dim>1</dim>
								<dim>1</dim>
							</port>
						</output>
					</layer>
					<layer id="81" name="Transpose_5854" type="Add" version="opset1">
						<data auto_broadcast="numpy" />
						<rt_info>
							<attribute name="fused_names" version="0" value="Transpose_5854" />
						</rt_info>
						<input>
							<port id="0" precision="FP32">
								<dim>1</dim>
								<dim>4</dim>
								<dim>62</dim>
								<dim>62</dim>
							</port>
							<port id="1" precision="FP32">
								<dim>1</dim>
								<dim>4</dim>
								<dim>1</dim>
								<dim>1</dim>
							</port>
						</input>
						<output>
							<port id="2" precision="FP32">
								<dim>1</dim>
								<dim>4</dim>
								<dim>62</dim>
								<dim>62</dim>
							</port>
						</output>
					</layer>
					<layer id="82" name="Constant_7079" type="Const" version="opset1">
						<data element_type="i64" shape="4" offset="51" size="32" />
						<rt_info>
							<attribute name="fused_names" version="0" value="Constant_7079" />
						</rt_info>
						<output>
							<port id="0" precision="I64">
								<dim>4</dim>
							</port>
						</output>
					</layer>
					<layer id="83" name="Transpose_7080" type="Transpose" version="opset1">
						<rt_info>
							<attribute name="fused_names" version="0" value="Transpose_7080" />
						</rt_info>
						<input>
							<port id="0" precision="FP32">
								<dim>1</dim>
								<dim>62</dim>
								<dim>62</dim>
								<dim>4</dim>
							</port>
							<port id="1" precision="I64">
								<dim>4</dim>
							</port>
						</input>
						<output>
							<port id="2" precision="FP32">
								<dim>1</dim>
								<dim>4</dim>
								<dim>62</dim>
								<dim>62</dim>
							</port>
						</output>
					</layer>
					<layer id="84" name="Constant_7081" type="Const" version="opset1">
						<data element_type="i64" shape="4" offset="51" size="32" />
						<rt_info>
							<attribute name="fused_names" version="0" value="Constant_7081" />
						</rt_info>
						<output>
							<port id="0" precision="I64">
								<dim>4</dim>
							</port>
						</output>
					</layer>
					<layer id="85" name="Transpose_7082" type="Transpose" version="opset1">
						<rt_info>
							<attribute name="fused_names" version="0" value="Transpose_7082" />
						</rt_info>
						<input>
							<port id="0" precision="FP32">
								<dim>1</dim>
								<dim>62</dim>
								<dim>62</dim>
								<dim>4</dim>
							</port>
							<port id="1" precision="I64">
								<dim>4</dim>
							</port>
						</input>
						<output>
							<port id="2" precision="FP32">
								<dim>1</dim>
								<dim>4</dim>
								<dim>62</dim>
								<dim>62</dim>
							</port>
						</output>
					</layer>
					<layer id="86" name="Transpose_144" type="Multiply" version="opset1">
						<data auto_broadcast="numpy" />
						<rt_info>
							<attribute name="fused_names" version="0" value="Transpose_144" />
						</rt_info>
						<input>
							<port id="0" precision="FP32">
								<dim>1</dim>
								<dim>4</dim>
								<dim>62</dim>
								<dim>62</dim>
							</port>
							<port id="1" precision="FP32">
								<dim>1</dim>
								<dim>4</dim>
								<dim>62</dim>
								<dim>62</dim>
							</port>
						</input>
						<output>
							<port id="2" precision="FP32">
								<dim>1</dim>
								<dim>4</dim>
								<dim>62</dim>
								<dim>62</dim>
							</port>
						</output>
					</layer>
					<layer id="87" name="Convolution_147" type="Convolution" version="opset1">
						<data strides="1, 1" dilations="1, 1" pads_begin="0, 0" pads_end="0, 0" auto_pad="same_upper" />
						<rt_info>
							<attribute name="fused_names" version="0" value="Convolution_147" />
						</rt_info>
						<input>
							<port id="0" precision="FP32">
								<dim>1</dim>
								<dim>4</dim>
								<dim>62</dim>
								<dim>62</dim>
							</port>
							<port id="1" precision="FP32">
								<dim>4</dim>
								<dim>4</dim>
								<dim>3</dim>
								<dim>3</dim>
							</port>
						</input>
						<output>
							<port id="2" precision="FP32">
								<dim>1</dim>
								<dim>4</dim>
								<dim>62</dim>
								<dim>62</dim>
							</port>
						</output>
					</layer>
					<layer id="88" name="Transpose_5858" type="Add" version="opset1">
						<data auto_broadcast="numpy" />
						<rt_info>
							<attribute name="fused_names" version="0" value="Transpose_5858" />
						</rt_info>
						<input>
							<port id="0" precision="FP32">
								<dim>1</dim>
								<dim>4</dim>
								<dim>62</dim>
								<dim>62</dim>
							</port>
							<port id="1" precision="FP32">
								<dim>1</dim>
								<dim>4</dim>
								<dim>62</dim>
								<dim>62</dim>
							</port>
						</input>
						<output>
							<port id="2" precision="FP32">
								<dim>1</dim>
								<dim>4</dim>
								<dim>62</dim>
								<dim>62</dim>
							</port>
						</output>
					</layer>
					<layer id="89" name="Transpose_5860" type="Tanh" version="opset1">
						<rt_info>
							<attribute name="fused_names" version="0" value="Transpose_5860" />
						</rt_info>
						<input>
							<port id="0" precision="FP32">
								<dim>1</dim>
								<dim>4</dim>
								<dim>62</dim>
								<dim>62</dim>
							</port>
						</input>
						<output>
							<port id="1" precision="FP32">
								<dim>1</dim>
								<dim>4</dim>
								<dim>62</dim>
								<dim>62</dim>
							</port>
						</output>
					</layer>
					<layer id="90" name="Transpose_5864" type="Multiply" version="opset1">
						<data auto_broadcast="numpy" />
						<rt_info>
							<attribute name="fused_names" version="0" value="Transpose_5864" />
						</rt_info>
						<input>
							<port id="0" precision="FP32">
								<dim>1</dim>
								<dim>4</dim>
								<dim>62</dim>
								<dim>62</dim>
							</port>
							<port id="1" precision="FP32">
								<dim>1</dim>
								<dim>4</dim>
								<dim>62</dim>
								<dim>62</dim>
							</port>
						</input>
						<output>
							<port id="2" precision="FP32">
								<dim>1</dim>
								<dim>4</dim>
								<dim>62</dim>
								<dim>62</dim>
							</port>
						</output>
					</layer>
					<layer id="91" name="Transpose_5868" type="Add" version="opset1">
						<data auto_broadcast="numpy" />
						<rt_info>
							<attribute name="fused_names" version="0" value="Transpose_5868" />
						</rt_info>
						<input>
							<port id="0" precision="FP32">
								<dim>1</dim>
								<dim>4</dim>
								<dim>62</dim>
								<dim>62</dim>
							</port>
							<port id="1" precision="FP32">
								<dim>1</dim>
								<dim>4</dim>
								<dim>62</dim>
								<dim>62</dim>
							</port>
						</input>
						<output>
							<port id="2" precision="FP32">
								<dim>1</dim>
								<dim>4</dim>
								<dim>62</dim>
								<dim>62</dim>
							</port>
						</output>
					</layer>
					<layer id="92" name="Constant_5867" type="Const" version="opset1">
						<data element_type="i64" shape="4" offset="299" size="32" />
						<rt_info>
							<attribute name="fused_names" version="0" value="Constant_5867" />
						</rt_info>
						<output>
							<port id="0" precision="I64">
								<dim>4</dim>
							</port>
						</output>
					</layer>
					<layer id="93" name="sequential_1/conv_lstm2d/while/add_5" type="Transpose" version="opset1">
						<rt_info>
							<attribute name="fused_names" version="0" value="sequential_1/conv_lstm2d/while/add_5" />
						</rt_info>
						<input>
							<port id="0" precision="FP32">
								<dim>1</dim>
								<dim>4</dim>
								<dim>62</dim>
								<dim>62</dim>
							</port>
							<port id="1" precision="I64">
								<dim>4</dim>
							</port>
						</input>
						<output>
							<port id="2" precision="FP32">
								<dim>1</dim>
								<dim>62</dim>
								<dim>62</dim>
								<dim>4</dim>
							</port>
						</output>
					</layer>
					<layer id="95" name="Convolution_240" type="Convolution" version="opset1">
						<data strides="1, 1" dilations="1, 1" pads_begin="0, 0" pads_end="0, 0" auto_pad="valid" />
						<rt_info>
							<attribute name="fused_names" version="0" value="Convolution_240" />
						</rt_info>
						<input>
							<port id="0" precision="FP32">
								<dim>1</dim>
								<dim>3</dim>
								<dim>64</dim>
								<dim>64</dim>
							</port>
							<port id="1" precision="FP32">
								<dim>4</dim>
								<dim>3</dim>
								<dim>3</dim>
								<dim>3</dim>
							</port>
						</input>
						<output>
							<port id="2" precision="FP32">
								<dim>1</dim>
								<dim>4</dim>
								<dim>62</dim>
								<dim>62</dim>
							</port>
						</output>
					</layer>
					<layer id="96" name="Constant_7086" type="Const" version="opset1">
						<data element_type="i64" shape="3" offset="2451" size="24" />
						<rt_info>
							<attribute name="fused_names" version="0" value="Constant_7086" />
						</rt_info>
						<output>
							<port id="0" precision="I64">
								<dim>3</dim>
							</port>
						</output>
					</layer>
					<layer id="97" name="Transpose_5872" type="Unsqueeze" version="opset1">
						<rt_info>
							<attribute name="fused_names" version="0" value="Transpose_5872" />
						</rt_info>
						<input>
							<port id="0" precision="FP32">
								<dim>4</dim>
							</port>
							<port id="1" precision="I64">
								<dim>3</dim>
							</port>
						</input>
						<output>
							<port id="2" precision="FP32">
								<dim>1</dim>
								<dim>4</dim>
								<dim>1</dim>
								<dim>1</dim>
							</port>
						</output>
					</layer>
					<layer id="98" name="Transpose_5874" type="Add" version="opset1">
						<data auto_broadcast="numpy" />
						<rt_info>
							<attribute name="fused_names" version="0" value="Transpose_5874" />
						</rt_info>
						<input>
							<port id="0" precision="FP32">
								<dim>1</dim>
								<dim>4</dim>
								<dim>62</dim>
								<dim>62</dim>
							</port>
							<port id="1" precision="FP32">
								<dim>1</dim>
								<dim>4</dim>
								<dim>1</dim>
								<dim>1</dim>
							</port>
						</input>
						<output>
							<port id="2" precision="FP32">
								<dim>1</dim>
								<dim>4</dim>
								<dim>62</dim>
								<dim>62</dim>
							</port>
						</output>
					</layer>
					<layer id="99" name="Constant_7090" type="Const" version="opset1">
						<data element_type="i64" shape="4" offset="51" size="32" />
						<rt_info>
							<attribute name="fused_names" version="0" value="Constant_7090" />
						</rt_info>
						<output>
							<port id="0" precision="I64">
								<dim>4</dim>
							</port>
						</output>
					</layer>
					<layer id="100" name="Transpose_7091" type="Transpose" version="opset1">
						<rt_info>
							<attribute name="fused_names" version="0" value="Transpose_7091" />
						</rt_info>
						<input>
							<port id="0" precision="FP32">
								<dim>1</dim>
								<dim>62</dim>
								<dim>62</dim>
								<dim>4</dim>
							</port>
							<port id="1" precision="I64">
								<dim>4</dim>
							</port>
						</input>
						<output>
							<port id="2" precision="FP32">
								<dim>1</dim>
								<dim>4</dim>
								<dim>62</dim>
								<dim>62</dim>
							</port>
						</output>
					</layer>
					<layer id="101" name="Constant_7092" type="Const" version="opset1">
						<data element_type="i64" shape="4" offset="51" size="32" />
						<rt_info>
							<attribute name="fused_names" version="0" value="Constant_7092" />
						</rt_info>
						<output>
							<port id="0" precision="I64">
								<dim>4</dim>
							</port>
						</output>
					</layer>
					<layer id="102" name="Transpose_7093" type="Transpose" version="opset1">
						<rt_info>
							<attribute name="fused_names" version="0" value="Transpose_7093" />
						</rt_info>
						<input>
							<port id="0" precision="FP32">
								<dim>1</dim>
								<dim>62</dim>
								<dim>62</dim>
								<dim>4</dim>
							</port>
							<port id="1" precision="I64">
								<dim>4</dim>
							</port>
						</input>
						<output>
							<port id="2" precision="FP32">
								<dim>1</dim>
								<dim>4</dim>
								<dim>62</dim>
								<dim>62</dim>
							</port>
						</output>
					</layer>
					<layer id="103" name="Transpose_230" type="Multiply" version="opset1">
						<data auto_broadcast="numpy" />
						<rt_info>
							<attribute name="fused_names" version="0" value="Transpose_230" />
						</rt_info>
						<input>
							<port id="0" precision="FP32">
								<dim>1</dim>
								<dim>4</dim>
								<dim>62</dim>
								<dim>62</dim>
							</port>
							<port id="1" precision="FP32">
								<dim>1</dim>
								<dim>4</dim>
								<dim>62</dim>
								<dim>62</dim>
							</port>
						</input>
						<output>
							<port id="2" precision="FP32">
								<dim>1</dim>
								<dim>4</dim>
								<dim>62</dim>
								<dim>62</dim>
							</port>
						</output>
					</layer>
					<layer id="104" name="Convolution_233" type="Convolution" version="opset1">
						<data strides="1, 1" dilations="1, 1" pads_begin="0, 0" pads_end="0, 0" auto_pad="same_upper" />
						<rt_info>
							<attribute name="fused_names" version="0" value="Convolution_233" />
						</rt_info>
						<input>
							<port id="0" precision="FP32">
								<dim>1</dim>
								<dim>4</dim>
								<dim>62</dim>
								<dim>62</dim>
							</port>
							<port id="1" precision="FP32">
								<dim>4</dim>
								<dim>4</dim>
								<dim>3</dim>
								<dim>3</dim>
							</port>
						</input>
						<output>
							<port id="2" precision="FP32">
								<dim>1</dim>
								<dim>4</dim>
								<dim>62</dim>
								<dim>62</dim>
							</port>
						</output>
					</layer>
					<layer id="105" name="Transpose_5878" type="Add" version="opset1">
						<data auto_broadcast="numpy" />
						<rt_info>
							<attribute name="fused_names" version="0" value="Transpose_5878" />
						</rt_info>
						<input>
							<port id="0" precision="FP32">
								<dim>1</dim>
								<dim>4</dim>
								<dim>62</dim>
								<dim>62</dim>
							</port>
							<port id="1" precision="FP32">
								<dim>1</dim>
								<dim>4</dim>
								<dim>62</dim>
								<dim>62</dim>
							</port>
						</input>
						<output>
							<port id="2" precision="FP32">
								<dim>1</dim>
								<dim>4</dim>
								<dim>62</dim>
								<dim>62</dim>
							</port>
						</output>
					</layer>
					<layer id="106" name="Transpose_5882_compressed" type="Const" version="opset1">
						<data element_type="f16" shape="1, 1, 1, 1" offset="2477" size="2" />
						<rt_info>
							<attribute name="fused_names" version="0" value="Transpose_5882" />
						</rt_info>
						<output>
							<port id="0" precision="FP16">
								<dim>1</dim>
								<dim>1</dim>
								<dim>1</dim>
								<dim>1</dim>
							</port>
						</output>
					</layer>
					<layer id="107" name="Transpose_5882" type="Convert" version="opset1">
						<data destination_type="f32" />
						<rt_info>
							<attribute name="decompression" version="0" />
							<attribute name="fused_names" version="0" value="Transpose_5882" />
						</rt_info>
						<input>
							<port id="0" precision="FP16">
								<dim>1</dim>
								<dim>1</dim>
								<dim>1</dim>
								<dim>1</dim>
							</port>
						</input>
						<output>
							<port id="1" precision="FP32">
								<dim>1</dim>
								<dim>1</dim>
								<dim>1</dim>
								<dim>1</dim>
							</port>
						</output>
					</layer>
					<layer id="108" name="Transpose_5884" type="Multiply" version="opset1">
						<data auto_broadcast="numpy" />
						<rt_info>
							<attribute name="fused_names" version="0" value="Transpose_5884" />
						</rt_info>
						<input>
							<port id="0" precision="FP32">
								<dim>1</dim>
								<dim>4</dim>
								<dim>62</dim>
								<dim>62</dim>
							</port>
							<port id="1" precision="FP32">
								<dim>1</dim>
								<dim>1</dim>
								<dim>1</dim>
								<dim>1</dim>
							</port>
						</input>
						<output>
							<port id="2" precision="FP32">
								<dim>1</dim>
								<dim>4</dim>
								<dim>62</dim>
								<dim>62</dim>
							</port>
						</output>
					</layer>
					<layer id="109" name="Transpose_5888_compressed" type="Const" version="opset1">
						<data element_type="f16" shape="1, 1, 1, 1" offset="2479" size="2" />
						<rt_info>
							<attribute name="fused_names" version="0" value="Transpose_5888" />
						</rt_info>
						<output>
							<port id="0" precision="FP16">
								<dim>1</dim>
								<dim>1</dim>
								<dim>1</dim>
								<dim>1</dim>
							</port>
						</output>
					</layer>
					<layer id="110" name="Transpose_5888" type="Convert" version="opset1">
						<data destination_type="f32" />
						<rt_info>
							<attribute name="decompression" version="0" />
							<attribute name="fused_names" version="0" value="Transpose_5888" />
						</rt_info>
						<input>
							<port id="0" precision="FP16">
								<dim>1</dim>
								<dim>1</dim>
								<dim>1</dim>
								<dim>1</dim>
							</port>
						</input>
						<output>
							<port id="1" precision="FP32">
								<dim>1</dim>
								<dim>1</dim>
								<dim>1</dim>
								<dim>1</dim>
							</port>
						</output>
					</layer>
					<layer id="111" name="Transpose_5890" type="Add" version="opset1">
						<data auto_broadcast="numpy" />
						<rt_info>
							<attribute name="fused_names" version="0" value="Transpose_5890" />
						</rt_info>
						<input>
							<port id="0" precision="FP32">
								<dim>1</dim>
								<dim>4</dim>
								<dim>62</dim>
								<dim>62</dim>
							</port>
							<port id="1" precision="FP32">
								<dim>1</dim>
								<dim>1</dim>
								<dim>1</dim>
								<dim>1</dim>
							</port>
						</input>
						<output>
							<port id="2" precision="FP32">
								<dim>1</dim>
								<dim>4</dim>
								<dim>62</dim>
								<dim>62</dim>
							</port>
						</output>
					</layer>
					<layer id="112" name="Transpose_5902" type="Clamp" version="opset1">
						<data min="0" max="1" />
						<rt_info>
							<attribute name="fused_names" version="0" value="Transpose_5896, Transpose_5902" />
						</rt_info>
						<input>
							<port id="0" precision="FP32">
								<dim>1</dim>
								<dim>4</dim>
								<dim>62</dim>
								<dim>62</dim>
							</port>
						</input>
						<output>
							<port id="1" precision="FP32">
								<dim>1</dim>
								<dim>4</dim>
								<dim>62</dim>
								<dim>62</dim>
							</port>
						</output>
					</layer>
					<layer id="113" name="Transpose_5904" type="Tanh" version="opset1">
						<rt_info>
							<attribute name="fused_names" version="0" value="Transpose_5904" />
						</rt_info>
						<input>
							<port id="0" precision="FP32">
								<dim>1</dim>
								<dim>4</dim>
								<dim>62</dim>
								<dim>62</dim>
							</port>
						</input>
						<output>
							<port id="1" precision="FP32">
								<dim>1</dim>
								<dim>4</dim>
								<dim>62</dim>
								<dim>62</dim>
							</port>
						</output>
					</layer>
					<layer id="114" name="Transpose_5908" type="Multiply" version="opset1">
						<data auto_broadcast="numpy" />
						<rt_info>
							<attribute name="fused_names" version="0" value="Transpose_5908" />
						</rt_info>
						<input>
							<port id="0" precision="FP32">
								<dim>1</dim>
								<dim>4</dim>
								<dim>62</dim>
								<dim>62</dim>
							</port>
							<port id="1" precision="FP32">
								<dim>1</dim>
								<dim>4</dim>
								<dim>62</dim>
								<dim>62</dim>
							</port>
						</input>
						<output>
							<port id="2" precision="FP32">
								<dim>1</dim>
								<dim>4</dim>
								<dim>62</dim>
								<dim>62</dim>
							</port>
						</output>
					</layer>
					<layer id="115" name="Constant_5907" type="Const" version="opset1">
						<data element_type="i64" shape="4" offset="299" size="32" />
						<rt_info>
							<attribute name="fused_names" version="0" value="Constant_5907" />
						</rt_info>
						<output>
							<port id="0" precision="I64">
								<dim>4</dim>
							</port>
						</output>
					</layer>
					<layer id="116" name="sequential_1/conv_lstm2d/while/mul_9" type="Transpose" version="opset1">
						<rt_info>
							<attribute name="fused_names" version="0" value="sequential_1/conv_lstm2d/while/mul_9" />
						</rt_info>
						<input>
							<port id="0" precision="FP32">
								<dim>1</dim>
								<dim>4</dim>
								<dim>62</dim>
								<dim>62</dim>
							</port>
							<port id="1" precision="I64">
								<dim>4</dim>
							</port>
						</input>
						<output>
							<port id="2" precision="FP32">
								<dim>1</dim>
								<dim>62</dim>
								<dim>62</dim>
								<dim>4</dim>
							</port>
						</output>
					</layer>
					<layer id="118" name="Concat_258" type="Const" version="opset1">
						<data element_type="i32" shape="2" offset="2481" size="8" />
						<rt_info>
							<attribute name="fused_names" version="0" value="Concat_258" />
						</rt_info>
						<output>
							<port id="0" precision="I32">
								<dim>2</dim>
							</port>
						</output>
					</layer>
					<layer id="119" name="Reshape_259" type="Reshape" version="opset1">
						<data special_zero="false" />
						<rt_info>
							<attribute name="fused_names" version="0" value="Reshape_259" />
						</rt_info>
						<input>
							<port id="0" precision="FP32">
								<dim>-1</dim>
								<dim>-1</dim>
							</port>
							<port id="1" precision="I32">
								<dim>2</dim>
							</port>
						</input>
						<output>
							<port id="2" precision="FP32">
								<dim>-1</dim>
								<dim>15376</dim>
							</port>
						</output>
					</layer>
					<layer id="120" name="Constant_7783" type="Const" version="opset1">
						<data element_type="i64" shape="1" offset="2489" size="8" />
						<rt_info>
							<attribute name="fused_names" version="0" value="Constant_7783" />
						</rt_info>
						<output>
							<port id="0" precision="I64">
								<dim>1</dim>
							</port>
						</output>
					</layer>
					<layer id="121" name="Reshape_253" type="Reshape" version="opset1">
						<data special_zero="false" />
						<rt_info>
							<attribute name="fused_names" version="0" value="Reshape_253" />
						</rt_info>
						<input>
							<port id="0" precision="FP32">
								<dim>1</dim>
								<dim>62</dim>
								<dim>62</dim>
								<dim>4</dim>
							</port>
							<port id="1" precision="I64">
								<dim>1</dim>
							</port>
						</input>
						<output>
							<port id="2" precision="FP32">
								<dim>15376</dim>
							</port>
						</output>
					</layer>
					<layer id="122" name="ConvertLike_262" type="ConvertLike" version="opset1">
						<rt_info>
							<attribute name="fused_names" version="0" value="ConvertLike_262" />
						</rt_info>
						<input>
							<port id="0" precision="FP32">
								<dim>-1</dim>
								<dim>15376</dim>
							</port>
							<port id="1" precision="FP32">
								<dim>15376</dim>
							</port>
						</input>
						<output>
							<port id="2" precision="FP32">
								<dim>-1</dim>
								<dim>15376</dim>
							</port>
						</output>
					</layer>
					<layer id="123" name="Constant_272_compressed" type="Const" version="opset1">
						<data element_type="f16" shape="" offset="33" size="2" />
						<rt_info>
							<attribute name="fused_names" version="0" value="Constant_272" />
						</rt_info>
						<output>
							<port id="0" precision="FP16" />
						</output>
					</layer>
					<layer id="124" name="Constant_272" type="Convert" version="opset1">
						<data destination_type="f32" />
						<rt_info>
							<attribute name="decompression" version="0" />
							<attribute name="fused_names" version="0" value="Constant_272" />
						</rt_info>
						<input>
							<port id="0" precision="FP16" />
						</input>
						<output>
							<port id="1" precision="FP32" />
						</output>
					</layer>
					<layer id="125" name="ShapeOf_263" type="ShapeOf" version="opset3">
						<data output_type="i32" />
						<rt_info>
							<attribute name="fused_names" version="0" value="ShapeOf_263" />
						</rt_info>
						<input>
							<port id="0" precision="FP32">
								<dim>-1</dim>
								<dim>15376</dim>
							</port>
						</input>
						<output>
							<port id="1" precision="I32">
								<dim>2</dim>
							</port>
						</output>
					</layer>
					<layer id="126" name="Constant_264" type="Const" version="opset1">
						<data element_type="i32" shape="1" offset="4" size="4" />
						<rt_info>
							<attribute name="fused_names" version="0" value="Slice_266" />
						</rt_info>
						<output>
							<port id="0" precision="I32">
								<dim>1</dim>
							</port>
						</output>
					</layer>
					<layer id="127" name="Constant_265" type="Const" version="opset1">
						<data element_type="i32" shape="1" offset="28" size="4" />
						<rt_info>
							<attribute name="fused_names" version="0" value="Slice_266" />
						</rt_info>
						<output>
							<port id="0" precision="I32">
								<dim>1</dim>
							</port>
						</output>
					</layer>
					<layer id="128" name="Slice_266" type="StridedSlice" version="opset1">
						<data begin_mask="0" end_mask="0" new_axis_mask="" shrink_axis_mask="" ellipsis_mask="" />
						<rt_info>
							<attribute name="fused_names" version="0" value="Slice_266" />
						</rt_info>
						<input>
							<port id="0" precision="I32">
								<dim>2</dim>
							</port>
							<port id="1" precision="I32">
								<dim>1</dim>
							</port>
							<port id="2" precision="I32">
								<dim>1</dim>
							</port>
							<port id="3" precision="I32">
								<dim>1</dim>
							</port>
						</input>
						<output>
							<port id="4" precision="I32">
								<dim>1</dim>
							</port>
						</output>
					</layer>
					<layer id="129" name="Constant_268" type="Const" version="opset1">
						<data element_type="i32" shape="1" offset="28" size="4" />
						<rt_info>
							<attribute name="fused_names" version="0" value="Constant_268" />
						</rt_info>
						<output>
							<port id="0" precision="I32">
								<dim>1</dim>
							</port>
						</output>
					</layer>
					<layer id="130" name="Add_269" type="Add" version="opset1">
						<data auto_broadcast="numpy" />
						<rt_info>
							<attribute name="fused_names" version="0" value="Add_269" />
						</rt_info>
						<input>
							<port id="0" precision="I32" />
							<port id="1" precision="I32">
								<dim>1</dim>
							</port>
						</input>
						<output>
							<port id="2" precision="I32">
								<dim>1</dim>
							</port>
						</output>
					</layer>
					<layer id="131" name="Maximum_270" type="Maximum" version="opset1">
						<data auto_broadcast="numpy" />
						<rt_info>
							<attribute name="fused_names" version="0" value="Maximum_270" />
						</rt_info>
						<input>
							<port id="0" precision="I32">
								<dim>1</dim>
							</port>
							<port id="1" precision="I32">
								<dim>1</dim>
							</port>
						</input>
						<output>
							<port id="2" precision="I32">
								<dim>1</dim>
							</port>
						</output>
					</layer>
					<layer id="132" name="Subtract_271" type="Subtract" version="opset1">
						<data auto_broadcast="numpy" />
						<rt_info>
							<attribute name="fused_names" version="0" value="Subtract_271" />
						</rt_info>
						<input>
							<port id="0" precision="I32">
								<dim>1</dim>
							</port>
							<port id="1" precision="I32">
								<dim>1</dim>
							</port>
						</input>
						<output>
							<port id="2" precision="I32">
								<dim>1</dim>
							</port>
						</output>
					</layer>
					<layer id="133" name="ShapeOf_256" type="Const" version="opset1">
						<data element_type="i32" shape="1" offset="2497" size="4" />
						<rt_info>
							<attribute name="fused_names" version="0" value="ShapeOf_256" />
						</rt_info>
						<output>
							<port id="0" precision="I32">
								<dim>1</dim>
							</port>
						</output>
					</layer>
					<layer id="134" name="Concat_273" type="Concat" version="opset1">
						<data axis="0" />
						<rt_info>
							<attribute name="fused_names" version="0" value="Concat_273" />
						</rt_info>
						<input>
							<port id="0" precision="I32">
								<dim>1</dim>
							</port>
							<port id="1" precision="I32">
								<dim>1</dim>
							</port>
						</input>
						<output>
							<port id="2" precision="I32">
								<dim>2</dim>
							</port>
						</output>
					</layer>
					<layer id="135" name="Broadcast_274" type="Broadcast" version="opset3">
						<data mode="numpy" />
						<rt_info>
							<attribute name="fused_names" version="0" value="Broadcast_274" />
						</rt_info>
						<input>
							<port id="0" precision="FP32" />
							<port id="1" precision="I32">
								<dim>2</dim>
							</port>
						</input>
						<output>
							<port id="2" precision="FP32">
								<dim>-1</dim>
								<dim>15376</dim>
							</port>
						</output>
					</layer>
					<layer id="136" name="Concat_275" type="Concat" version="opset1">
						<data axis="0" />
						<rt_info>
							<attribute name="fused_names" version="0" value="Concat_275" />
						</rt_info>
						<input>
							<port id="0" precision="FP32">
								<dim>-1</dim>
								<dim>15376</dim>
							</port>
							<port id="1" precision="FP32">
								<dim>-1</dim>
								<dim>15376</dim>
							</port>
						</input>
						<output>
							<port id="2" precision="FP32">
								<dim>-1</dim>
								<dim>15376</dim>
							</port>
						</output>
					</layer>
					<layer id="137" name="Unsqueeze_276" type="Unsqueeze" version="opset1">
						<rt_info>
							<attribute name="fused_names" version="0" value="Unsqueeze_276" />
						</rt_info>
						<input>
							<port id="0" precision="I32" />
							<port id="1" precision="I32">
								<dim>1</dim>
							</port>
						</input>
						<output>
							<port id="2" precision="I32">
								<dim>1</dim>
							</port>
						</output>
					</layer>
					<layer id="138" name="Unsqueeze_277" type="Unsqueeze" version="opset1">
						<rt_info>
							<attribute name="fused_names" version="0" value="Unsqueeze_277" />
						</rt_info>
						<input>
							<port id="0" precision="FP32">
								<dim>15376</dim>
							</port>
							<port id="1" precision="I32">
								<dim>1</dim>
							</port>
						</input>
						<output>
							<port id="2" precision="FP32">
								<dim>1</dim>
								<dim>15376</dim>
							</port>
						</output>
					</layer>
					<layer id="139" name="sequential_1/conv_lstm2d/while/TensorArrayV2Write/TensorListSetItem" type="ScatterUpdate" version="opset3">
						<rt_info>
							<attribute name="fused_names" version="0" value="sequential_1/conv_lstm2d/while/TensorArrayV2Write/TensorListSetItem" />
						</rt_info>
						<input>
							<port id="0" precision="FP32">
								<dim>-1</dim>
								<dim>15376</dim>
							</port>
							<port id="1" precision="I32">
								<dim>1</dim>
							</port>
							<port id="2" precision="FP32">
								<dim>1</dim>
								<dim>15376</dim>
							</port>
							<port id="3" precision="I32">
								<dim>1</dim>
							</port>
						</input>
						<output>
							<port id="4" precision="FP32">
								<dim>-1</dim>
								<dim>15376</dim>
							</port>
						</output>
					</layer>
					<layer id="143" name="sequential_1/conv_lstm2d/while/add_9/y" type="Const" version="opset1">
						<data element_type="i32" shape="" offset="28" size="4" />
						<rt_info>
							<attribute name="fused_names" version="0" value="sequential_1/conv_lstm2d/while/add_9/y" />
						</rt_info>
						<output>
							<port id="0" precision="I32" />
						</output>
					</layer>
					<layer id="144" name="sequential_1/conv_lstm2d/while/add_9" type="Add" version="opset1">
						<data auto_broadcast="numpy" />
						<rt_info>
							<attribute name="fused_names" version="0" value="sequential_1/conv_lstm2d/while/add_9" />
						</rt_info>
						<input>
							<port id="0" precision="I32" />
							<port id="1" precision="I32" />
						</input>
						<output>
							<port id="2" precision="I32" />
						</output>
					</layer>
					<layer id="145" name="sequential_1_conv_lstm2d_while_identity" type="Result" version="opset1">
						<rt_info>
							<attribute name="fused_names" version="0" value="sequential_1_conv_lstm2d_while_identity" />
						</rt_info>
						<input>
							<port id="0" precision="I32" />
						</input>
					</layer>
					<layer id="142" name="sequential_1_conv_lstm2d_while_identity_1" type="Result" version="opset1">
						<rt_info>
							<attribute name="fused_names" version="0" value="sequential_1_conv_lstm2d_while_identity_1" />
						</rt_info>
						<input>
							<port id="0" precision="I32" />
						</input>
					</layer>
					<layer id="141" name="sequential_1_conv_lstm2d_while_identity_2" type="Result" version="opset1">
						<rt_info>
							<attribute name="fused_names" version="0" value="sequential_1_conv_lstm2d_while_identity_2" />
						</rt_info>
						<input>
							<port id="0" precision="I32" />
						</input>
					</layer>
					<layer id="140" name="sequential_1_conv_lstm2d_while_identity_3" type="Result" version="opset1">
						<rt_info>
							<attribute name="fused_names" version="0" value="sequential_1_conv_lstm2d_while_identity_3" />
						</rt_info>
						<input>
							<port id="0" precision="FP32">
								<dim>-1</dim>
								<dim>15376</dim>
							</port>
						</input>
					</layer>
					<layer id="117" name="sequential_1_conv_lstm2d_while_identity_4" type="Result" version="opset1">
						<rt_info>
							<attribute name="fused_names" version="0" value="sequential_1_conv_lstm2d_while_identity_4" />
						</rt_info>
						<input>
							<port id="0" precision="FP32">
								<dim>1</dim>
								<dim>62</dim>
								<dim>62</dim>
								<dim>4</dim>
							</port>
						</input>
					</layer>
					<layer id="94" name="sequential_1_conv_lstm2d_while_identity_5" type="Result" version="opset1">
						<rt_info>
							<attribute name="fused_names" version="0" value="sequential_1_conv_lstm2d_while_identity_5" />
						</rt_info>
						<input>
							<port id="0" precision="FP32">
								<dim>1</dim>
								<dim>62</dim>
								<dim>62</dim>
								<dim>4</dim>
							</port>
						</input>
					</layer>
					<layer id="19" name="sequential_1_conv_lstm2d_while_sequential_1_conv_lstm2d_strided_slice" type="Result" version="opset1">
						<rt_info>
							<attribute name="fused_names" version="0" value="sequential_1_conv_lstm2d_while_sequential_1_conv_lstm2d_strided_slice" />
						</rt_info>
						<input>
							<port id="0" precision="I32" />
						</input>
					</layer>
					<layer id="18" name="sequential_1_conv_lstm2d_while_tensorarrayv2read_tensorlistgetitem_sequential_1_conv_lstm2d_tensorarrayunstack_tensorlistfromtensor" type="Result" version="opset1">
						<rt_info>
							<attribute name="fused_names" version="0" value="sequential_1_conv_lstm2d_while_tensorarrayv2read_tensorlistgetitem_sequential_1_conv_lstm2d_tensorarrayunstack_tensorlistfromtensor" />
						</rt_info>
						<input>
							<port id="0" precision="FP32">
								<dim>25</dim>
								<dim>1</dim>
								<dim>64</dim>
								<dim>64</dim>
								<dim>3</dim>
							</port>
						</input>
					</layer>
					<layer id="17" name="sequential_1_conv_lstm2d_while_split_readvariableop_resource" type="Result" version="opset1">
						<rt_info>
							<attribute name="fused_names" version="0" value="sequential_1_conv_lstm2d_while_split_readvariableop_resource" />
						</rt_info>
						<input>
							<port id="0" precision="FP32">
								<dim>3</dim>
								<dim>3</dim>
								<dim>3</dim>
								<dim>16</dim>
							</port>
						</input>
					</layer>
					<layer id="16" name="sequential_1_conv_lstm2d_while_split_1_readvariableop_resource" type="Result" version="opset1">
						<rt_info>
							<attribute name="fused_names" version="0" value="sequential_1_conv_lstm2d_while_split_1_readvariableop_resource" />
						</rt_info>
						<input>
							<port id="0" precision="FP32">
								<dim>3</dim>
								<dim>3</dim>
								<dim>4</dim>
								<dim>16</dim>
							</port>
						</input>
					</layer>
					<layer id="15" name="sequential_1_conv_lstm2d_while_split_2_readvariableop_resource" type="Result" version="opset1">
						<rt_info>
							<attribute name="fused_names" version="0" value="sequential_1_conv_lstm2d_while_split_2_readvariableop_resource" />
						</rt_info>
						<input>
							<port id="0" precision="FP32">
								<dim>16</dim>
							</port>
						</input>
					</layer>
					<layer id="14" name="sequential_1_conv_lstm2d_while_identity0" type="Result" version="opset1">
						<rt_info>
							<attribute name="fused_names" version="0" value="sequential_1_conv_lstm2d_while_identity" />
						</rt_info>
						<input>
							<port id="0" precision="BOOL" />
						</input>
					</layer>
				</layers>
				<edges>
					<edge from-layer="0" from-port="0" to-layer="15" to-port="0" />
					<edge from-layer="0" from-port="0" to-layer="31" to-port="0" />
					<edge from-layer="1" from-port="0" to-layer="45" to-port="0" />
					<edge from-layer="1" from-port="0" to-layer="16" to-port="0" />
					<edge from-layer="2" from-port="0" to-layer="17" to-port="0" />
					<edge from-layer="2" from-port="0" to-layer="26" to-port="0" />
					<edge from-layer="3" from-port="0" to-layer="18" to-port="0" />
					<edge from-layer="3" from-port="0" to-layer="21" to-port="0" />
					<edge from-layer="4" from-port="0" to-layer="13" to-port="1" />
					<edge from-layer="4" from-port="0" to-layer="19" to-port="0" />
					<edge from-layer="5" from-port="0" to-layer="58" to-port="0" />
					<edge from-layer="6" from-port="0" to-layer="100" to-port="0" />
					<edge from-layer="6" from-port="0" to-layer="39" to-port="0" />
					<edge from-layer="6" from-port="0" to-layer="65" to-port="0" />
					<edge from-layer="6" from-port="0" to-layer="36" to-port="0" />
					<edge from-layer="6" from-port="0" to-layer="83" to-port="0" />
					<edge from-layer="7" from-port="0" to-layer="119" to-port="0" />
					<edge from-layer="8" from-port="0" to-layer="22" to-port="0" />
					<edge from-layer="8" from-port="0" to-layer="12" to-port="0" />
					<edge from-layer="9" from-port="0" to-layer="142" to-port="0" />
					<edge from-layer="10" from-port="0" to-layer="144" to-port="0" />
					<edge from-layer="11" from-port="0" to-layer="12" to-port="1" />
					<edge from-layer="12" from-port="2" to-layer="13" to-port="0" />
					<edge from-layer="12" from-port="2" to-layer="141" to-port="0" />
					<edge from-layer="13" from-port="2" to-layer="14" to-port="0" />
					<edge from-layer="20" from-port="0" to-layer="21" to-port="1" />
					<edge from-layer="21" from-port="2" to-layer="24" to-port="0" />
					<edge from-layer="22" from-port="1" to-layer="24" to-port="1" />
					<edge from-layer="22" from-port="1" to-layer="137" to-port="0" />
					<edge from-layer="22" from-port="1" to-layer="130" to-port="0" />
					<edge from-layer="23" from-port="0" to-layer="24" to-port="2" />
					<edge from-layer="24" from-port="3" to-layer="78" to-port="0" />
					<edge from-layer="24" from-port="3" to-layer="60" to-port="0" />
					<edge from-layer="24" from-port="3" to-layer="95" to-port="0" />
					<edge from-layer="24" from-port="3" to-layer="29" to-port="0" />
					<edge from-layer="25" from-port="0" to-layer="26" to-port="1" />
					<edge from-layer="26" from-port="2" to-layer="28" to-port="0" />
					<edge from-layer="27" from-port="0" to-layer="28" to-port="1" />
					<edge from-layer="28" from-port="2" to-layer="60" to-port="1" />
					<edge from-layer="28" from-port="5" to-layer="95" to-port="1" />
					<edge from-layer="28" from-port="3" to-layer="29" to-port="1" />
					<edge from-layer="28" from-port="4" to-layer="78" to-port="1" />
					<edge from-layer="29" from-port="2" to-layer="34" to-port="0" />
					<edge from-layer="30" from-port="0" to-layer="31" to-port="1" />
					<edge from-layer="31" from-port="2" to-layer="62" to-port="0" />
					<edge from-layer="31" from-port="3" to-layer="33" to-port="0" />
					<edge from-layer="31" from-port="5" to-layer="97" to-port="0" />
					<edge from-layer="31" from-port="4" to-layer="80" to-port="0" />
					<edge from-layer="32" from-port="0" to-layer="33" to-port="1" />
					<edge from-layer="33" from-port="2" to-layer="34" to-port="1" />
					<edge from-layer="34" from-port="2" to-layer="49" to-port="0" />
					<edge from-layer="35" from-port="0" to-layer="36" to-port="1" />
					<edge from-layer="36" from-port="2" to-layer="43" to-port="0" />
					<edge from-layer="37" from-port="0" to-layer="38" to-port="0" />
					<edge from-layer="38" from-port="1" to-layer="40" to-port="0" />
					<edge from-layer="39" from-port="1" to-layer="40" to-port="1" />
					<edge from-layer="40" from-port="2" to-layer="102" to-port="0" />
					<edge from-layer="40" from-port="2" to-layer="42" to-port="0" />
					<edge from-layer="40" from-port="2" to-layer="67" to-port="0" />
					<edge from-layer="40" from-port="2" to-layer="85" to-port="0" />
					<edge from-layer="41" from-port="0" to-layer="42" to-port="1" />
					<edge from-layer="42" from-port="2" to-layer="43" to-port="1" />
					<edge from-layer="43" from-port="2" to-layer="48" to-port="0" />
					<edge from-layer="44" from-port="0" to-layer="45" to-port="1" />
					<edge from-layer="45" from-port="2" to-layer="47" to-port="0" />
					<edge from-layer="46" from-port="0" to-layer="47" to-port="1" />
					<edge from-layer="47" from-port="3" to-layer="48" to-port="1" />
					<edge from-layer="47" from-port="2" to-layer="69" to-port="1" />
					<edge from-layer="47" from-port="5" to-layer="104" to-port="1" />
					<edge from-layer="47" from-port="4" to-layer="87" to-port="1" />
					<edge from-layer="48" from-port="2" to-layer="49" to-port="1" />
					<edge from-layer="49" from-port="2" to-layer="52" to-port="0" />
					<edge from-layer="50" from-port="0" to-layer="51" to-port="0" />
					<edge from-layer="51" from-port="1" to-layer="52" to-port="1" />
					<edge from-layer="52" from-port="2" to-layer="55" to-port="0" />
					<edge from-layer="53" from-port="0" to-layer="54" to-port="0" />
					<edge from-layer="54" from-port="1" to-layer="55" to-port="1" />
					<edge from-layer="55" from-port="2" to-layer="56" to-port="0" />
					<edge from-layer="56" from-port="1" to-layer="59" to-port="0" />
					<edge from-layer="57" from-port="0" to-layer="58" to-port="1" />
					<edge from-layer="58" from-port="2" to-layer="59" to-port="1" />
					<edge from-layer="59" from-port="2" to-layer="91" to-port="0" />
					<edge from-layer="60" from-port="2" to-layer="63" to-port="0" />
					<edge from-layer="61" from-port="0" to-layer="62" to-port="1" />
					<edge from-layer="62" from-port="2" to-layer="63" to-port="1" />
					<edge from-layer="63" from-port="2" to-layer="70" to-port="0" />
					<edge from-layer="64" from-port="0" to-layer="65" to-port="1" />
					<edge from-layer="65" from-port="2" to-layer="68" to-port="0" />
					<edge from-layer="66" from-port="0" to-layer="67" to-port="1" />
					<edge from-layer="67" from-port="2" to-layer="68" to-port="1" />
					<edge from-layer="68" from-port="2" to-layer="69" to-port="0" />
					<edge from-layer="69" from-port="2" to-layer="70" to-port="1" />
					<edge from-layer="70" from-port="2" to-layer="73" to-port="0" />
					<edge from-layer="71" from-port="0" to-layer="72" to-port="0" />
					<edge from-layer="72" from-port="1" to-layer="73" to-port="1" />
					<edge from-layer="73" from-port="2" to-layer="76" to-port="0" />
					<edge from-layer="74" from-port="0" to-layer="75" to-port="0" />
					<edge from-layer="75" from-port="1" to-layer="76" to-port="1" />
					<edge from-layer="76" from-port="2" to-layer="77" to-port="0" />
					<edge from-layer="77" from-port="1" to-layer="90" to-port="0" />
					<edge from-layer="78" from-port="2" to-layer="81" to-port="0" />
					<edge from-layer="79" from-port="0" to-layer="80" to-port="1" />
					<edge from-layer="80" from-port="2" to-layer="81" to-port="1" />
					<edge from-layer="81" from-port="2" to-layer="88" to-port="0" />
					<edge from-layer="82" from-port="0" to-layer="83" to-port="1" />
					<edge from-layer="83" from-port="2" to-layer="86" to-port="0" />
					<edge from-layer="84" from-port="0" to-layer="85" to-port="1" />
					<edge from-layer="85" from-port="2" to-layer="86" to-port="1" />
					<edge from-layer="86" from-port="2" to-layer="87" to-port="0" />
					<edge from-layer="87" from-port="2" to-layer="88" to-port="1" />
					<edge from-layer="88" from-port="2" to-layer="89" to-port="0" />
					<edge from-layer="89" from-port="1" to-layer="90" to-port="1" />
					<edge from-layer="90" from-port="2" to-layer="91" to-port="1" />
					<edge from-layer="91" from-port="2" to-layer="93" to-port="0" />
					<edge from-layer="91" from-port="2" to-layer="113" to-port="0" />
					<edge from-layer="92" from-port="0" to-layer="93" to-port="1" />
					<edge from-layer="93" from-port="2" to-layer="94" to-port="0" />
					<edge from-layer="95" from-port="2" to-layer="98" to-port="0" />
					<edge from-layer="96" from-port="0" to-layer="97" to-port="1" />
					<edge from-layer="97" from-port="2" to-layer="98" to-port="1" />
					<edge from-layer="98" from-port="2" to-layer="105" to-port="0" />
					<edge from-layer="99" from-port="0" to-layer="100" to-port="1" />
					<edge from-layer="100" from-port="2" to-layer="103" to-port="0" />
					<edge from-layer="101" from-port="0" to-layer="102" to-port="1" />
					<edge from-layer="102" from-port="2" to-layer="103" to-port="1" />
					<edge from-layer="103" from-port="2" to-layer="104" to-port="0" />
					<edge from-layer="104" from-port="2" to-layer="105" to-port="1" />
					<edge from-layer="105" from-port="2" to-layer="108" to-port="0" />
					<edge from-layer="106" from-port="0" to-layer="107" to-port="0" />
					<edge from-layer="107" from-port="1" to-layer="108" to-port="1" />
					<edge from-layer="108" from-port="2" to-layer="111" to-port="0" />
					<edge from-layer="109" from-port="0" to-layer="110" to-port="0" />
					<edge from-layer="110" from-port="1" to-layer="111" to-port="1" />
					<edge from-layer="111" from-port="2" to-layer="112" to-port="0" />
					<edge from-layer="112" from-port="1" to-layer="114" to-port="0" />
					<edge from-layer="113" from-port="1" to-layer="114" to-port="1" />
					<edge from-layer="114" from-port="2" to-layer="116" to-port="0" />
					<edge from-layer="115" from-port="0" to-layer="116" to-port="1" />
					<edge from-layer="116" from-port="2" to-layer="121" to-port="0" />
					<edge from-layer="116" from-port="2" to-layer="117" to-port="0" />
					<edge from-layer="118" from-port="0" to-layer="119" to-port="1" />
					<edge from-layer="119" from-port="2" to-layer="122" to-port="0" />
					<edge from-layer="120" from-port="0" to-layer="121" to-port="1" />
					<edge from-layer="121" from-port="2" to-layer="122" to-port="1" />
					<edge from-layer="121" from-port="2" to-layer="138" to-port="0" />
					<edge from-layer="122" from-port="2" to-layer="125" to-port="0" />
					<edge from-layer="122" from-port="2" to-layer="136" to-port="0" />
					<edge from-layer="123" from-port="0" to-layer="124" to-port="0" />
					<edge from-layer="124" from-port="1" to-layer="135" to-port="0" />
					<edge from-layer="125" from-port="1" to-layer="128" to-port="0" />
					<edge from-layer="126" from-port="0" to-layer="139" to-port="3" />
					<edge from-layer="126" from-port="0" to-layer="138" to-port="1" />
					<edge from-layer="126" from-port="0" to-layer="137" to-port="1" />
					<edge from-layer="126" from-port="0" to-layer="128" to-port="1" />
					<edge from-layer="127" from-port="0" to-layer="128" to-port="3" />
					<edge from-layer="127" from-port="0" to-layer="128" to-port="2" />
					<edge from-layer="128" from-port="4" to-layer="132" to-port="1" />
					<edge from-layer="128" from-port="4" to-layer="131" to-port="0" />
					<edge from-layer="129" from-port="0" to-layer="130" to-port="1" />
					<edge from-layer="130" from-port="2" to-layer="131" to-port="1" />
					<edge from-layer="131" from-port="2" to-layer="132" to-port="0" />
					<edge from-layer="132" from-port="2" to-layer="134" to-port="0" />
					<edge from-layer="133" from-port="0" to-layer="134" to-port="1" />
					<edge from-layer="134" from-port="2" to-layer="135" to-port="1" />
					<edge from-layer="135" from-port="2" to-layer="136" to-port="1" />
					<edge from-layer="136" from-port="2" to-layer="139" to-port="0" />
					<edge from-layer="137" from-port="2" to-layer="139" to-port="1" />
					<edge from-layer="138" from-port="2" to-layer="139" to-port="2" />
					<edge from-layer="139" from-port="4" to-layer="140" to-port="0" />
					<edge from-layer="143" from-port="0" to-layer="144" to-port="1" />
					<edge from-layer="144" from-port="2" to-layer="145" to-port="0" />
				</edges>
				<rt_info />
			</body>
		</layer>
		<layer id="44" name="ShapeOf_618" type="ShapeOf" version="opset3">
			<data output_type="i32" />
			<input>
				<port id="0" precision="FP32">
					<dim>-1</dim>
					<dim>15376</dim>
				</port>
			</input>
			<output>
				<port id="1" precision="I32">
					<dim>2</dim>
				</port>
			</output>
		</layer>
		<layer id="45" name="Constant_619" type="Const" version="opset1">
			<data element_type="i32" shape="1" offset="4" size="4" />
			<output>
				<port id="0" precision="I32">
					<dim>1</dim>
				</port>
			</output>
		</layer>
		<layer id="46" name="Constant_620" type="Const" version="opset1">
			<data element_type="i32" shape="1" offset="28" size="4" />
			<output>
				<port id="0" precision="I32">
					<dim>1</dim>
				</port>
			</output>
		</layer>
		<layer id="47" name="Slice_621" type="StridedSlice" version="opset1">
			<data begin_mask="0" end_mask="0" new_axis_mask="" shrink_axis_mask="" ellipsis_mask="" />
			<input>
				<port id="0" precision="I32">
					<dim>2</dim>
				</port>
				<port id="1" precision="I32">
					<dim>1</dim>
				</port>
				<port id="2" precision="I32">
					<dim>1</dim>
				</port>
				<port id="3" precision="I32">
					<dim>1</dim>
				</port>
			</input>
			<output>
				<port id="4" precision="I32">
					<dim>1</dim>
				</port>
			</output>
		</layer>
		<layer id="48" name="sequential_1/conv_lstm2d/TensorArrayV2Stack/TensorListStack/element_shape" type="Const" version="opset1">
			<data element_type="i32" shape="4" offset="2501" size="16" />
			<output>
				<port id="0" precision="I32" names="sequential_1/conv_lstm2d/TensorArrayV2Stack/TensorListStack/element_shape,sequential_1/conv_lstm2d/TensorArrayV2Stack/TensorListStack/element_shape:0">
					<dim>4</dim>
				</port>
			</output>
		</layer>
		<layer id="49" name="Concat_623" type="Concat" version="opset1">
			<data axis="0" />
			<input>
				<port id="0" precision="I32">
					<dim>1</dim>
				</port>
				<port id="1" precision="I32">
					<dim>4</dim>
				</port>
			</input>
			<output>
				<port id="2" precision="I32">
					<dim>5</dim>
				</port>
			</output>
		</layer>
		<layer id="50" name="sequential_1/conv_lstm2d/TensorArrayV2Stack/TensorListStack" type="Reshape" version="opset1">
			<data special_zero="false" />
			<input>
				<port id="0" precision="FP32">
					<dim>-1</dim>
					<dim>15376</dim>
				</port>
				<port id="1" precision="I32">
					<dim>5</dim>
				</port>
			</input>
			<output>
				<port id="2" precision="FP32" names="sequential_1/conv_lstm2d/TensorArrayV2Stack/TensorListStack,sequential_1/conv_lstm2d/TensorArrayV2Stack/TensorListStack:0">
					<dim>-1</dim>
					<dim>-1</dim>
					<dim>62</dim>
					<dim>62</dim>
					<dim>4</dim>
				</port>
			</output>
		</layer>
		<layer id="51" name="Constant_5909" type="Const" version="opset1">
			<data element_type="i64" shape="5" offset="2517" size="40" />
			<output>
				<port id="0" precision="I64">
					<dim>5</dim>
				</port>
			</output>
		</layer>
		<layer id="52" name="Transpose_633" type="Transpose" version="opset1">
			<input>
				<port id="0" precision="FP32">
					<dim>-1</dim>
					<dim>-1</dim>
					<dim>62</dim>
					<dim>62</dim>
					<dim>4</dim>
				</port>
				<port id="1" precision="I64">
					<dim>5</dim>
				</port>
			</input>
			<output>
				<port id="2" precision="FP32" names="sequential_1/conv_lstm2d/transpose_1,sequential_1/conv_lstm2d/transpose_1:0">
					<dim>-1</dim>
					<dim>4</dim>
					<dim>-1</dim>
					<dim>62</dim>
					<dim>62</dim>
				</port>
			</output>
		</layer>
		<layer id="53" name="MaxPool_634" type="MaxPool" version="opset8">
			<data strides="1, 2, 2" dilations="1, 1, 1" pads_begin="0, 0, 0" pads_end="0, 0, 0" kernel="1, 2, 2" rounding_type="floor" auto_pad="same_upper" index_element_type="i64" axis="0" />
			<input>
				<port id="0" precision="FP32">
					<dim>-1</dim>
					<dim>4</dim>
					<dim>-1</dim>
					<dim>62</dim>
					<dim>62</dim>
				</port>
			</input>
			<output>
				<port id="1" precision="FP32">
					<dim>-1</dim>
					<dim>4</dim>
					<dim>-1</dim>
					<dim>31</dim>
					<dim>31</dim>
				</port>
				<port id="2" precision="I64">
					<dim>-1</dim>
					<dim>4</dim>
					<dim>-1</dim>
					<dim>31</dim>
					<dim>31</dim>
				</port>
			</output>
		</layer>
		<layer id="54" name="Constant_635" type="Const" version="opset1">
			<data element_type="i64" shape="5" offset="2557" size="40" />
			<output>
				<port id="0" precision="I64">
					<dim>5</dim>
				</port>
			</output>
		</layer>
		<layer id="55" name="sequential_1/max_pooling3d/MaxPool3D" type="Transpose" version="opset1">
			<input>
				<port id="0" precision="FP32">
					<dim>-1</dim>
					<dim>4</dim>
					<dim>-1</dim>
					<dim>31</dim>
					<dim>31</dim>
				</port>
				<port id="1" precision="I64">
					<dim>5</dim>
				</port>
			</input>
			<output>
				<port id="2" precision="FP32" names="sequential_1/max_pooling3d/MaxPool3D,sequential_1/max_pooling3d/MaxPool3D:0">
					<dim>-1</dim>
					<dim>-1</dim>
					<dim>31</dim>
					<dim>31</dim>
					<dim>4</dim>
				</port>
			</output>
		</layer>
		<layer id="56" name="sequential_1/time_distributed/Reshape/shape" type="Const" version="opset1">
			<data element_type="i32" shape="4" offset="2597" size="16" />
			<output>
				<port id="0" precision="I32" names="sequential_1/time_distributed/Reshape/shape,sequential_1/time_distributed/Reshape/shape:0">
					<dim>4</dim>
				</port>
			</output>
		</layer>
		<layer id="57" name="sequential_1/time_distributed/Reshape" type="Reshape" version="opset1">
			<data special_zero="false" />
			<input>
				<port id="0" precision="FP32">
					<dim>-1</dim>
					<dim>-1</dim>
					<dim>31</dim>
					<dim>31</dim>
					<dim>4</dim>
				</port>
				<port id="1" precision="I32">
					<dim>4</dim>
				</port>
			</input>
			<output>
				<port id="2" precision="FP32" names="sequential_1/time_distributed/Reshape,sequential_1/time_distributed/Reshape:0,sequential_1/time_distributed/dropout/Identity,sequential_1/time_distributed/dropout/Identity:0">
					<dim>-1</dim>
					<dim>31</dim>
					<dim>31</dim>
					<dim>4</dim>
				</port>
			</output>
		</layer>
		<layer id="58" name="sequential_1/time_distributed/Reshape_1/shape" type="Const" version="opset1">
			<data element_type="i32" shape="5" offset="2613" size="20" />
			<output>
				<port id="0" precision="I32" names="sequential_1/time_distributed/Reshape_1/shape,sequential_1/time_distributed/Reshape_1/shape:0">
					<dim>5</dim>
				</port>
			</output>
		</layer>
		<layer id="59" name="sequential_1/time_distributed/Reshape_1" type="Reshape" version="opset1">
			<data special_zero="false" />
			<input>
				<port id="0" precision="FP32">
					<dim>-1</dim>
					<dim>31</dim>
					<dim>31</dim>
					<dim>4</dim>
				</port>
				<port id="1" precision="I32">
					<dim>5</dim>
				</port>
			</input>
			<output>
				<port id="2" precision="FP32" names="sequential_1/time_distributed/Reshape_1,sequential_1/time_distributed/Reshape_1:0">
					<dim>-1</dim>
					<dim>25</dim>
					<dim>31</dim>
					<dim>31</dim>
					<dim>4</dim>
				</port>
			</output>
		</layer>
		<layer id="60" name="sequential_1/conv_lstm2d_1/transpose/perm" type="Const" version="opset1">
			<data element_type="i32" shape="5" offset="8" size="20" />
			<output>
				<port id="0" precision="I32" names="sequential_1/conv_lstm2d_1/transpose/perm,sequential_1/conv_lstm2d_1/transpose/perm:0">
					<dim>5</dim>
				</port>
			</output>
		</layer>
		<layer id="61" name="sequential_1/conv_lstm2d_1/transpose" type="Transpose" version="opset1">
			<input>
				<port id="0" precision="FP32">
					<dim>-1</dim>
					<dim>25</dim>
					<dim>31</dim>
					<dim>31</dim>
					<dim>4</dim>
				</port>
				<port id="1" precision="I32">
					<dim>5</dim>
				</port>
			</input>
			<output>
				<port id="2" precision="FP32" names="sequential_1/conv_lstm2d_1/transpose,sequential_1/conv_lstm2d_1/transpose:0">
					<dim>25</dim>
					<dim>-1</dim>
					<dim>31</dim>
					<dim>31</dim>
					<dim>4</dim>
				</port>
			</output>
		</layer>
		<layer id="62" name="sequential_1/conv_lstm2d_1/Shape" type="ShapeOf" version="opset3">
			<data output_type="i32" />
			<input>
				<port id="0" precision="FP32">
					<dim>25</dim>
					<dim>-1</dim>
					<dim>31</dim>
					<dim>31</dim>
					<dim>4</dim>
				</port>
			</input>
			<output>
				<port id="1" precision="I32" names="sequential_1/conv_lstm2d_1/Shape,sequential_1/conv_lstm2d_1/Shape:0">
					<dim>5</dim>
				</port>
			</output>
		</layer>
		<layer id="63" name="sequential_1/conv_lstm2d_1/strided_slice/stack" type="Const" version="opset1">
			<data element_type="i32" shape="1" offset="4" size="4" />
			<output>
				<port id="0" precision="I32" names="sequential_1/conv_lstm2d_1/strided_slice/stack,sequential_1/conv_lstm2d_1/strided_slice/stack:0">
					<dim>1</dim>
				</port>
			</output>
		</layer>
		<layer id="64" name="sequential_1/conv_lstm2d_1/strided_slice/stack_1" type="Const" version="opset1">
			<data element_type="i32" shape="1" offset="28" size="4" />
			<output>
				<port id="0" precision="I32" names="sequential_1/conv_lstm2d_1/strided_slice/stack_1,sequential_1/conv_lstm2d_1/strided_slice/stack_1:0">
					<dim>1</dim>
				</port>
			</output>
		</layer>
		<layer id="65" name="sequential_1/conv_lstm2d_1/strided_slice/stack_2" type="Const" version="opset1">
			<data element_type="i32" shape="1" offset="28" size="4" />
			<output>
				<port id="0" precision="I32" names="sequential_1/conv_lstm2d_1/strided_slice/stack_2,sequential_1/conv_lstm2d_1/strided_slice/stack_2:0">
					<dim>1</dim>
				</port>
			</output>
		</layer>
		<layer id="66" name="sequential_1/conv_lstm2d_1/strided_slice" type="StridedSlice" version="opset1">
			<data begin_mask="0" end_mask="0" new_axis_mask="0" shrink_axis_mask="1" ellipsis_mask="0" />
			<input>
				<port id="0" precision="I32">
					<dim>5</dim>
				</port>
				<port id="1" precision="I32">
					<dim>1</dim>
				</port>
				<port id="2" precision="I32">
					<dim>1</dim>
				</port>
				<port id="3" precision="I32">
					<dim>1</dim>
				</port>
			</input>
			<output>
				<port id="4" precision="I32" names="sequential_1/conv_lstm2d_1/strided_slice,sequential_1/conv_lstm2d_1/strided_slice:0" />
			</output>
		</layer>
		<layer id="67" name="sequential_1/conv_lstm2d_1/while/Less" type="Less" version="opset1">
			<data auto_broadcast="numpy" />
			<input>
				<port id="0" precision="I32" />
				<port id="1" precision="I32" />
			</input>
			<output>
				<port id="2" precision="BOOL" />
			</output>
		</layer>
		<layer id="68" name="sequential_1/conv_lstm2d_1/while/loop_counter" type="Const" version="opset1">
			<data element_type="i32" shape="" offset="4" size="4" />
			<output>
				<port id="0" precision="I32" names="sequential_1/conv_lstm2d_1/while/loop_counter,sequential_1/conv_lstm2d_1/while/loop_counter:0" />
			</output>
		</layer>
		<layer id="69" name="sequential_1/conv_lstm2d_1/while/maximum_iterations" type="Const" version="opset1">
			<data element_type="i32" shape="" offset="0" size="4" />
			<output>
				<port id="0" precision="I32" names="sequential_1/conv_lstm2d_1/while/maximum_iterations,sequential_1/conv_lstm2d_1/while/maximum_iterations:0" />
			</output>
		</layer>
		<layer id="70" name="sequential_1/conv_lstm2d_1/TensorArrayV2_1" type="Const" version="opset1">
			<data element_type="f32" shape="0, 0" offset="32" size="1" />
			<output>
				<port id="0" precision="FP32" names="sequential_1/conv_lstm2d_1/TensorArrayV2_1,sequential_1/conv_lstm2d_1/TensorArrayV2_1:0">
					<dim>0</dim>
					<dim>0</dim>
				</port>
			</output>
		</layer>
		<layer id="71" name="Constant_652_compressed" type="Const" version="opset1">
			<data element_type="f16" shape="" offset="33" size="2" />
			<output>
				<port id="0" precision="FP16" />
			</output>
		</layer>
		<layer id="72" name="Constant_652" type="Convert" version="opset1">
			<data destination_type="f32" />
			<rt_info>
				<attribute name="decompression" version="0" />
			</rt_info>
			<input>
				<port id="0" precision="FP16" />
			</input>
			<output>
				<port id="1" precision="FP32" />
			</output>
		</layer>
		<layer id="73" name="Constant_654" type="Const" version="opset1">
			<data element_type="i32" shape="1" offset="28" size="4" />
			<output>
				<port id="0" precision="I32">
					<dim>1</dim>
				</port>
			</output>
		</layer>
		<layer id="74" name="ShapeOf_651" type="ShapeOf" version="opset3">
			<data output_type="i32" />
			<input>
				<port id="0" precision="FP32">
					<dim>-1</dim>
					<dim>25</dim>
					<dim>31</dim>
					<dim>31</dim>
					<dim>4</dim>
				</port>
			</input>
			<output>
				<port id="1" precision="I32">
					<dim>5</dim>
				</port>
			</output>
		</layer>
		<layer id="75" name="Concat_655" type="Concat" version="opset1">
			<data axis="0" />
			<input>
				<port id="0" precision="I32">
					<dim>1</dim>
				</port>
				<port id="1" precision="I32">
					<dim>5</dim>
				</port>
			</input>
			<output>
				<port id="2" precision="I32">
					<dim>6</dim>
				</port>
			</output>
		</layer>
		<layer id="76" name="Broadcast_656" type="Broadcast" version="opset3">
			<data mode="numpy" />
			<input>
				<port id="0" precision="FP32" />
				<port id="1" precision="I32">
					<dim>6</dim>
				</port>
			</input>
			<output>
				<port id="2" precision="FP32">
					<dim>1</dim>
					<dim>-1</dim>
					<dim>25</dim>
					<dim>31</dim>
					<dim>31</dim>
					<dim>4</dim>
				</port>
			</output>
		</layer>
		<layer id="77" name="Constant_9583" type="Const" version="opset1">
			<data element_type="i64" shape="1" offset="35" size="8" />
			<output>
				<port id="0" precision="I64">
					<dim>1</dim>
				</port>
			</output>
		</layer>
		<layer id="78" name="Squeeze_9584" type="Squeeze" version="opset1">
			<input>
				<port id="0" precision="FP32">
					<dim>1</dim>
					<dim>-1</dim>
					<dim>25</dim>
					<dim>31</dim>
					<dim>31</dim>
					<dim>4</dim>
				</port>
				<port id="1" precision="I64">
					<dim>1</dim>
				</port>
			</input>
			<output>
				<port id="2" precision="FP32">
					<dim>-1</dim>
					<dim>25</dim>
					<dim>31</dim>
					<dim>31</dim>
					<dim>4</dim>
				</port>
			</output>
		</layer>
		<layer id="79" name="Constant_9590" type="Const" version="opset1">
			<data element_type="i64" shape="1" offset="43" size="8" />
			<output>
				<port id="0" precision="I64">
					<dim>1</dim>
				</port>
			</output>
		</layer>
		<layer id="80" name="ReduceSum_9591" type="ReduceSum" version="opset1">
			<data keep_dims="false" />
			<input>
				<port id="0" precision="FP32">
					<dim>-1</dim>
					<dim>25</dim>
					<dim>31</dim>
					<dim>31</dim>
					<dim>4</dim>
				</port>
				<port id="1" precision="I64">
					<dim>1</dim>
				</port>
			</input>
			<output>
				<port id="2" precision="FP32">
					<dim>-1</dim>
					<dim>31</dim>
					<dim>31</dim>
					<dim>4</dim>
				</port>
			</output>
		</layer>
		<layer id="81" name="Constant_9592" type="Const" version="opset1">
			<data element_type="i64" shape="4" offset="51" size="32" />
			<output>
				<port id="0" precision="I64">
					<dim>4</dim>
				</port>
			</output>
		</layer>
		<layer id="82" name="Transpose_666" type="Transpose" version="opset1">
			<input>
				<port id="0" precision="FP32">
					<dim>-1</dim>
					<dim>31</dim>
					<dim>31</dim>
					<dim>4</dim>
				</port>
				<port id="1" precision="I64">
					<dim>4</dim>
				</port>
			</input>
			<output>
				<port id="2" precision="FP32" names="sequential_1/conv_lstm2d_1/Sum,sequential_1/conv_lstm2d_1/Sum:0">
					<dim>-1</dim>
					<dim>4</dim>
					<dim>31</dim>
					<dim>31</dim>
				</port>
			</output>
		</layer>
		<layer id="83" name="Transpose_668_compressed" type="Const" version="opset1">
			<data element_type="f16" shape="8, 4, 3, 3" offset="2633" size="576" />
			<output>
				<port id="0" precision="FP16">
					<dim>8</dim>
					<dim>4</dim>
					<dim>3</dim>
					<dim>3</dim>
				</port>
			</output>
		</layer>
		<layer id="84" name="Transpose_668" type="Convert" version="opset1">
			<data destination_type="f32" />
			<rt_info>
				<attribute name="decompression" version="0" />
			</rt_info>
			<input>
				<port id="0" precision="FP16">
					<dim>8</dim>
					<dim>4</dim>
					<dim>3</dim>
					<dim>3</dim>
				</port>
			</input>
			<output>
				<port id="1" precision="FP32">
					<dim>8</dim>
					<dim>4</dim>
					<dim>3</dim>
					<dim>3</dim>
				</port>
			</output>
		</layer>
		<layer id="85" name="Convolution_669" type="Convolution" version="opset1">
			<data strides="1, 1" dilations="1, 1" pads_begin="0, 0" pads_end="0, 0" auto_pad="valid" />
			<input>
				<port id="0" precision="FP32">
					<dim>-1</dim>
					<dim>4</dim>
					<dim>31</dim>
					<dim>31</dim>
				</port>
				<port id="1" precision="FP32">
					<dim>8</dim>
					<dim>4</dim>
					<dim>3</dim>
					<dim>3</dim>
				</port>
			</input>
			<output>
				<port id="2" precision="FP32">
					<dim>-1</dim>
					<dim>8</dim>
					<dim>29</dim>
					<dim>29</dim>
				</port>
			</output>
		</layer>
		<layer id="86" name="Constant_670" type="Const" version="opset1">
			<data element_type="i64" shape="4" offset="299" size="32" />
			<output>
				<port id="0" precision="I64">
					<dim>4</dim>
				</port>
			</output>
		</layer>
		<layer id="87" name="sequential_1/conv_lstm2d_1/convolution" type="Transpose" version="opset1">
			<input>
				<port id="0" precision="FP32">
					<dim>-1</dim>
					<dim>8</dim>
					<dim>29</dim>
					<dim>29</dim>
				</port>
				<port id="1" precision="I64">
					<dim>4</dim>
				</port>
			</input>
			<output>
				<port id="2" precision="FP32" names="sequential_1/conv_lstm2d_1/convolution,sequential_1/conv_lstm2d_1/convolution:0">
					<dim>-1</dim>
					<dim>29</dim>
					<dim>29</dim>
					<dim>8</dim>
				</port>
			</output>
		</layer>
		<layer id="88" name="conv_lstm2d_1/kernel_compressed" type="Const" version="opset1">
			<data element_type="f16" shape="3, 3, 4, 32" offset="3209" size="2304" />
			<output>
				<port id="0" precision="FP16">
					<dim>3</dim>
					<dim>3</dim>
					<dim>4</dim>
					<dim>32</dim>
				</port>
			</output>
		</layer>
		<layer id="89" name="conv_lstm2d_1/kernel" type="Convert" version="opset1">
			<data destination_type="f32" />
			<rt_info>
				<attribute name="decompression" version="0" />
			</rt_info>
			<input>
				<port id="0" precision="FP16">
					<dim>3</dim>
					<dim>3</dim>
					<dim>4</dim>
					<dim>32</dim>
				</port>
			</input>
			<output>
				<port id="1" precision="FP32" names="conv_lstm2d_1/kernel,conv_lstm2d_1/kernel:0,sequential_1/conv_lstm2d_1/split/ReadVariableOp,sequential_1/conv_lstm2d_1/split/ReadVariableOp:0,sequential_1_conv_lstm2d_1_split_readvariableop_resource,sequential_1_conv_lstm2d_1_split_readvariableop_resource:0,unknown_2,unknown_2:0">
					<dim>3</dim>
					<dim>3</dim>
					<dim>4</dim>
					<dim>32</dim>
				</port>
			</output>
		</layer>
		<layer id="90" name="conv_lstm2d_1/recurrent_kernel_compressed" type="Const" version="opset1">
			<data element_type="f16" shape="3, 3, 8, 32" offset="5513" size="4608" />
			<output>
				<port id="0" precision="FP16">
					<dim>3</dim>
					<dim>3</dim>
					<dim>8</dim>
					<dim>32</dim>
				</port>
			</output>
		</layer>
		<layer id="91" name="conv_lstm2d_1/recurrent_kernel" type="Convert" version="opset1">
			<data destination_type="f32" />
			<rt_info>
				<attribute name="decompression" version="0" />
			</rt_info>
			<input>
				<port id="0" precision="FP16">
					<dim>3</dim>
					<dim>3</dim>
					<dim>8</dim>
					<dim>32</dim>
				</port>
			</input>
			<output>
				<port id="1" precision="FP32" names="conv_lstm2d_1/recurrent_kernel,conv_lstm2d_1/recurrent_kernel:0,sequential_1/conv_lstm2d_1/split_1/ReadVariableOp,sequential_1/conv_lstm2d_1/split_1/ReadVariableOp:0,sequential_1_conv_lstm2d_1_split_1_readvariableop_resource,sequential_1_conv_lstm2d_1_split_1_readvariableop_resource:0,unknown_3,unknown_3:0">
					<dim>3</dim>
					<dim>3</dim>
					<dim>8</dim>
					<dim>32</dim>
				</port>
			</output>
		</layer>
		<layer id="92" name="conv_lstm2d_1/bias_compressed" type="Const" version="opset1">
			<data element_type="f16" shape="32" offset="10121" size="64" />
			<output>
				<port id="0" precision="FP16">
					<dim>32</dim>
				</port>
			</output>
		</layer>
		<layer id="93" name="conv_lstm2d_1/bias" type="Convert" version="opset1">
			<data destination_type="f32" />
			<rt_info>
				<attribute name="decompression" version="0" />
			</rt_info>
			<input>
				<port id="0" precision="FP16">
					<dim>32</dim>
				</port>
			</input>
			<output>
				<port id="1" precision="FP32" names="conv_lstm2d_1/bias,conv_lstm2d_1/bias:0,sequential_1/conv_lstm2d_1/split_2/ReadVariableOp,sequential_1/conv_lstm2d_1/split_2/ReadVariableOp:0,sequential_1_conv_lstm2d_1_split_2_readvariableop_resource,sequential_1_conv_lstm2d_1_split_2_readvariableop_resource:0,unknown_4,unknown_4:0">
					<dim>32</dim>
				</port>
			</output>
		</layer>
		<layer id="94" name="sequential_1/conv_lstm2d_1/while" type="Loop" version="opset5">
			<port_map>
				<input external_port_id="2" internal_layer_id="10" />
				<input external_port_id="3" internal_layer_id="9" />
				<input external_port_id="4" internal_layer_id="8" />
				<input external_port_id="5" internal_layer_id="7" />
				<input external_port_id="6" internal_layer_id="6" />
				<input external_port_id="7" internal_layer_id="5" />
				<input external_port_id="8" internal_layer_id="4" />
				<input external_port_id="9" internal_layer_id="3" />
				<input external_port_id="10" internal_layer_id="2" />
				<input external_port_id="11" internal_layer_id="1" />
				<input external_port_id="12" internal_layer_id="0" />
				<output external_port_id="13" internal_layer_id="141" />
				<output external_port_id="-1" internal_layer_id="14" purpose="execution_condition" />
			</port_map>
			<back_edges>
				<edge from-layer="146" to-layer="10" />
				<edge from-layer="143" to-layer="9" />
				<edge from-layer="142" to-layer="8" />
				<edge from-layer="141" to-layer="7" />
				<edge from-layer="117" to-layer="6" />
				<edge from-layer="94" to-layer="5" />
				<edge from-layer="19" to-layer="4" />
				<edge from-layer="18" to-layer="3" />
				<edge from-layer="17" to-layer="2" />
				<edge from-layer="16" to-layer="1" />
				<edge from-layer="15" to-layer="0" />
			</back_edges>
			<input>
				<port id="0" precision="I32" />
				<port id="1" precision="BOOL" />
				<port id="2" precision="I32" />
				<port id="3" precision="I32" />
				<port id="4" precision="I32" />
				<port id="5" precision="FP32">
					<dim>0</dim>
					<dim>0</dim>
				</port>
				<port id="6" precision="FP32">
					<dim>-1</dim>
					<dim>29</dim>
					<dim>29</dim>
					<dim>8</dim>
				</port>
				<port id="7" precision="FP32">
					<dim>-1</dim>
					<dim>29</dim>
					<dim>29</dim>
					<dim>8</dim>
				</port>
				<port id="8" precision="I32" />
				<port id="9" precision="FP32">
					<dim>25</dim>
					<dim>-1</dim>
					<dim>31</dim>
					<dim>31</dim>
					<dim>4</dim>
				</port>
				<port id="10" precision="FP32">
					<dim>3</dim>
					<dim>3</dim>
					<dim>4</dim>
					<dim>32</dim>
				</port>
				<port id="11" precision="FP32">
					<dim>3</dim>
					<dim>3</dim>
					<dim>8</dim>
					<dim>32</dim>
				</port>
				<port id="12" precision="FP32">
					<dim>32</dim>
				</port>
			</input>
			<output>
				<port id="13" precision="FP32" names="sequential_1/conv_lstm2d_1/while:3">
					<dim>-1</dim>
					<dim>-1</dim>
				</port>
			</output>
			<body>
				<layers>
					<layer id="10" name="sequential_1_conv_lstm2d_1_while_sequential_1_conv_lstm2d_1_while_loop_counter" type="Parameter" version="opset1">
						<data shape="" element_type="i32" />
						<rt_info>
							<attribute name="fused_names" version="0" value="sequential_1_conv_lstm2d_1_while_sequential_1_conv_lstm2d_1_while_loop_counter" />
						</rt_info>
						<output>
							<port id="0" precision="I32" />
						</output>
					</layer>
					<layer id="9" name="sequential_1_conv_lstm2d_1_while_sequential_1_conv_lstm2d_1_while_maximum_iterations" type="Parameter" version="opset1">
						<data shape="" element_type="i32" />
						<rt_info>
							<attribute name="fused_names" version="0" value="sequential_1_conv_lstm2d_1_while_sequential_1_conv_lstm2d_1_while_maximum_iterations" />
						</rt_info>
						<output>
							<port id="0" precision="I32" />
						</output>
					</layer>
					<layer id="8" name="sequential_1_conv_lstm2d_1_while_placeholder" type="Parameter" version="opset1">
						<data shape="" element_type="i32" />
						<rt_info>
							<attribute name="fused_names" version="0" value="sequential_1_conv_lstm2d_1_while_placeholder" />
						</rt_info>
						<output>
							<port id="0" precision="I32" />
						</output>
					</layer>
					<layer id="7" name="sequential_1_conv_lstm2d_1_while_placeholder_1" type="Parameter" version="opset1">
						<data shape="0,0" element_type="f32" />
						<rt_info>
							<attribute name="fused_names" version="0" value="sequential_1_conv_lstm2d_1_while_placeholder_1" />
							<attribute name="old_api_map_element_type" version="0" value="f16" />
						</rt_info>
						<output>
							<port id="0" precision="FP32">
								<dim>0</dim>
								<dim>0</dim>
							</port>
						</output>
					</layer>
					<layer id="6" name="sequential_1_conv_lstm2d_1_while_placeholder_2" type="Parameter" version="opset1">
						<data shape="?,29,29,8" element_type="f32" />
						<rt_info>
							<attribute name="fused_names" version="0" value="sequential_1_conv_lstm2d_1_while_placeholder_2" />
							<attribute name="old_api_map_element_type" version="0" value="f16" />
						</rt_info>
						<output>
							<port id="0" precision="FP32">
								<dim>-1</dim>
								<dim>29</dim>
								<dim>29</dim>
								<dim>8</dim>
							</port>
						</output>
					</layer>
					<layer id="5" name="sequential_1_conv_lstm2d_1_while_placeholder_3" type="Parameter" version="opset1">
						<data shape="?,29,29,8" element_type="f32" />
						<rt_info>
							<attribute name="fused_names" version="0" value="sequential_1_conv_lstm2d_1_while_placeholder_3" />
							<attribute name="old_api_map_element_type" version="0" value="f16" />
						</rt_info>
						<output>
							<port id="0" precision="FP32">
								<dim>-1</dim>
								<dim>29</dim>
								<dim>29</dim>
								<dim>8</dim>
							</port>
						</output>
					</layer>
					<layer id="4" name="sequential_1_conv_lstm2d_1_while_sequential_1_conv_lstm2d_1_strided_slice_0" type="Parameter" version="opset1">
						<data shape="" element_type="i32" />
						<rt_info>
							<attribute name="fused_names" version="0" value="sequential_1_conv_lstm2d_1_while_sequential_1_conv_lstm2d_1_strided_slice_0" />
						</rt_info>
						<output>
							<port id="0" precision="I32" />
						</output>
					</layer>
					<layer id="3" name="sequential_1_conv_lstm2d_1_while_tensorarrayv2read_tensorlistgetitem_sequential_1_conv_lstm2d_1_tensorarrayunstack_tensorlistfromtensor_0" type="Parameter" version="opset1">
						<data shape="25,?,31,31,4" element_type="f32" />
						<rt_info>
							<attribute name="fused_names" version="0" value="sequential_1_conv_lstm2d_1_while_tensorarrayv2read_tensorlistgetitem_sequential_1_conv_lstm2d_1_tensorarrayunstack_tensorlistfromtensor_0" />
							<attribute name="old_api_map_element_type" version="0" value="f16" />
						</rt_info>
						<output>
							<port id="0" precision="FP32">
								<dim>25</dim>
								<dim>-1</dim>
								<dim>31</dim>
								<dim>31</dim>
								<dim>4</dim>
							</port>
						</output>
					</layer>
					<layer id="2" name="sequential_1_conv_lstm2d_1_while_split_readvariableop_resource_0" type="Parameter" version="opset1">
						<data shape="3,3,4,32" element_type="f32" />
						<rt_info>
							<attribute name="fused_names" version="0" value="sequential_1_conv_lstm2d_1_while_split_readvariableop_resource_0" />
							<attribute name="old_api_map_element_type" version="0" value="f16" />
						</rt_info>
						<output>
							<port id="0" precision="FP32">
								<dim>3</dim>
								<dim>3</dim>
								<dim>4</dim>
								<dim>32</dim>
							</port>
						</output>
					</layer>
					<layer id="1" name="sequential_1_conv_lstm2d_1_while_split_1_readvariableop_resource_0" type="Parameter" version="opset1">
						<data shape="3,3,8,32" element_type="f32" />
						<rt_info>
							<attribute name="fused_names" version="0" value="sequential_1_conv_lstm2d_1_while_split_1_readvariableop_resource_0" />
							<attribute name="old_api_map_element_type" version="0" value="f16" />
						</rt_info>
						<output>
							<port id="0" precision="FP32">
								<dim>3</dim>
								<dim>3</dim>
								<dim>8</dim>
								<dim>32</dim>
							</port>
						</output>
					</layer>
					<layer id="0" name="sequential_1_conv_lstm2d_1_while_split_2_readvariableop_resource_0" type="Parameter" version="opset1">
						<data shape="32" element_type="f32" />
						<rt_info>
							<attribute name="fused_names" version="0" value="Transpose_7144, sequential_1_conv_lstm2d_1_while_split_2_readvariableop_resource_0" />
							<attribute name="old_api_map_element_type" version="0" value="f16" />
						</rt_info>
						<output>
							<port id="0" precision="FP32">
								<dim>32</dim>
							</port>
						</output>
					</layer>
					<layer id="11" name="sequential_1/conv_lstm2d_1/while/add_8/y" type="Const" version="opset1">
						<data element_type="i32" shape="" offset="28" size="4" />
						<rt_info>
							<attribute name="fused_names" version="0" value="sequential_1/conv_lstm2d_1/while/add_8/y" />
						</rt_info>
						<output>
							<port id="0" precision="I32" />
						</output>
					</layer>
					<layer id="12" name="sequential_1/conv_lstm2d_1/while/add_8" type="Add" version="opset1">
						<data auto_broadcast="numpy" />
						<rt_info>
							<attribute name="fused_names" version="0" value="sequential_1/conv_lstm2d_1/while/add_8" />
						</rt_info>
						<input>
							<port id="0" precision="I32" />
							<port id="1" precision="I32" />
						</input>
						<output>
							<port id="2" precision="I32" />
						</output>
					</layer>
					<layer id="13" name="sequential_1/conv_lstm2d_1/while/Less" type="Less" version="opset1">
						<data auto_broadcast="numpy" />
						<rt_info>
							<attribute name="fused_names" version="0" value="sequential_1/conv_lstm2d_1/while/Less" />
						</rt_info>
						<input>
							<port id="0" precision="I32" />
							<port id="1" precision="I32" />
						</input>
						<output>
							<port id="2" precision="BOOL" />
						</output>
					</layer>
					<layer id="20" name="Constant_7107" type="Const" version="opset1">
						<data element_type="i64" shape="5" offset="2379" size="40" />
						<rt_info>
							<attribute name="fused_names" version="0" value="Constant_7107" />
						</rt_info>
						<output>
							<port id="0" precision="I64">
								<dim>5</dim>
							</port>
						</output>
					</layer>
					<layer id="21" name="Transpose_7108" type="Transpose" version="opset1">
						<rt_info>
							<attribute name="fused_names" version="0" value="Transpose_7108" />
						</rt_info>
						<input>
							<port id="0" precision="FP32">
								<dim>25</dim>
								<dim>-1</dim>
								<dim>31</dim>
								<dim>31</dim>
								<dim>4</dim>
							</port>
							<port id="1" precision="I64">
								<dim>5</dim>
							</port>
						</input>
						<output>
							<port id="2" precision="FP32">
								<dim>25</dim>
								<dim>-1</dim>
								<dim>4</dim>
								<dim>31</dim>
								<dim>31</dim>
							</port>
						</output>
					</layer>
					<layer id="22" name="Squeeze_743" type="Squeeze" version="opset1">
						<rt_info>
							<attribute name="fused_names" version="0" value="Squeeze_743, Squeeze_839" />
						</rt_info>
						<input>
							<port id="0" precision="I32" />
						</input>
						<output>
							<port id="1" precision="I32" />
						</output>
					</layer>
					<layer id="23" name="Constant_7105" type="Const" version="opset1">
						<data element_type="i32" shape="1" offset="4" size="4" />
						<rt_info>
							<attribute name="fused_names" version="0" value="Constant_7105" />
						</rt_info>
						<output>
							<port id="0" precision="I32">
								<dim>1</dim>
							</port>
						</output>
					</layer>
					<layer id="24" name="Transpose_7104" type="Gather" version="opset8">
						<data batch_dims="0" />
						<rt_info>
							<attribute name="fused_names" version="0" value="Transpose_7104, Transpose_748" />
						</rt_info>
						<input>
							<port id="0" precision="FP32">
								<dim>25</dim>
								<dim>-1</dim>
								<dim>4</dim>
								<dim>31</dim>
								<dim>31</dim>
							</port>
							<port id="1" precision="I32" />
							<port id="2" precision="I32">
								<dim>1</dim>
							</port>
						</input>
						<output>
							<port id="3" precision="FP32">
								<dim>-1</dim>
								<dim>4</dim>
								<dim>31</dim>
								<dim>31</dim>
							</port>
						</output>
					</layer>
					<layer id="25" name="Constant_7109" type="Const" version="opset1">
						<data element_type="i64" shape="4" offset="2419" size="32" />
						<rt_info>
							<attribute name="fused_names" version="0" value="Constant_7109" />
						</rt_info>
						<output>
							<port id="0" precision="I64">
								<dim>4</dim>
							</port>
						</output>
					</layer>
					<layer id="26" name="Transpose_7110" type="Transpose" version="opset1">
						<rt_info>
							<attribute name="fused_names" version="0" value="Transpose_7110" />
						</rt_info>
						<input>
							<port id="0" precision="FP32">
								<dim>3</dim>
								<dim>3</dim>
								<dim>4</dim>
								<dim>32</dim>
							</port>
							<port id="1" precision="I64">
								<dim>4</dim>
							</port>
						</input>
						<output>
							<port id="2" precision="FP32">
								<dim>32</dim>
								<dim>4</dim>
								<dim>3</dim>
								<dim>3</dim>
							</port>
						</output>
					</layer>
					<layer id="27" name="Constant_7111" type="Const" version="opset1">
						<data element_type="i32" shape="" offset="4" size="4" />
						<rt_info>
							<attribute name="fused_names" version="0" value="Constant_7111" />
						</rt_info>
						<output>
							<port id="0" precision="I32" />
						</output>
					</layer>
					<layer id="28" name="Transpose_772" type="Split" version="opset1">
						<data num_splits="4" />
						<rt_info>
							<attribute name="fused_names" version="0" value="Transpose_772" />
						</rt_info>
						<input>
							<port id="0" precision="FP32">
								<dim>32</dim>
								<dim>4</dim>
								<dim>3</dim>
								<dim>3</dim>
							</port>
							<port id="1" precision="I32" />
						</input>
						<output>
							<port id="2" precision="FP32">
								<dim>8</dim>
								<dim>4</dim>
								<dim>3</dim>
								<dim>3</dim>
							</port>
							<port id="3" precision="FP32">
								<dim>8</dim>
								<dim>4</dim>
								<dim>3</dim>
								<dim>3</dim>
							</port>
							<port id="4" precision="FP32">
								<dim>8</dim>
								<dim>4</dim>
								<dim>3</dim>
								<dim>3</dim>
							</port>
							<port id="5" precision="FP32">
								<dim>8</dim>
								<dim>4</dim>
								<dim>3</dim>
								<dim>3</dim>
							</port>
						</output>
					</layer>
					<layer id="29" name="Convolution_799" type="Convolution" version="opset1">
						<data strides="1, 1" dilations="1, 1" pads_begin="0, 0" pads_end="0, 0" auto_pad="valid" />
						<rt_info>
							<attribute name="fused_names" version="0" value="Convolution_799" />
						</rt_info>
						<input>
							<port id="0" precision="FP32">
								<dim>-1</dim>
								<dim>4</dim>
								<dim>31</dim>
								<dim>31</dim>
							</port>
							<port id="1" precision="FP32">
								<dim>8</dim>
								<dim>4</dim>
								<dim>3</dim>
								<dim>3</dim>
							</port>
						</input>
						<output>
							<port id="2" precision="FP32">
								<dim>-1</dim>
								<dim>8</dim>
								<dim>29</dim>
								<dim>29</dim>
							</port>
						</output>
					</layer>
					<layer id="30" name="Constant_7145" type="Const" version="opset1">
						<data element_type="i32" shape="" offset="4" size="4" />
						<rt_info>
							<attribute name="fused_names" version="0" value="Constant_7145" />
						</rt_info>
						<output>
							<port id="0" precision="I32" />
						</output>
					</layer>
					<layer id="31" name="Transpose_7125" type="Split" version="opset1">
						<data num_splits="4" />
						<rt_info>
							<attribute name="fused_names" version="0" value="Transpose_7125" />
						</rt_info>
						<input>
							<port id="0" precision="FP32">
								<dim>32</dim>
							</port>
							<port id="1" precision="I32" />
						</input>
						<output>
							<port id="2" precision="FP32">
								<dim>8</dim>
							</port>
							<port id="3" precision="FP32">
								<dim>8</dim>
							</port>
							<port id="4" precision="FP32">
								<dim>8</dim>
							</port>
							<port id="5" precision="FP32">
								<dim>8</dim>
							</port>
						</output>
					</layer>
					<layer id="32" name="Constant_7115" type="Const" version="opset1">
						<data element_type="i64" shape="3" offset="2451" size="24" />
						<rt_info>
							<attribute name="fused_names" version="0" value="Constant_7115" />
						</rt_info>
						<output>
							<port id="0" precision="I64">
								<dim>3</dim>
							</port>
						</output>
					</layer>
					<layer id="33" name="Transpose_5914" type="Unsqueeze" version="opset1">
						<rt_info>
							<attribute name="fused_names" version="0" value="Transpose_5914" />
						</rt_info>
						<input>
							<port id="0" precision="FP32">
								<dim>8</dim>
							</port>
							<port id="1" precision="I64">
								<dim>3</dim>
							</port>
						</input>
						<output>
							<port id="2" precision="FP32">
								<dim>1</dim>
								<dim>8</dim>
								<dim>1</dim>
								<dim>1</dim>
							</port>
						</output>
					</layer>
					<layer id="34" name="Transpose_5916" type="Add" version="opset1">
						<data auto_broadcast="numpy" />
						<rt_info>
							<attribute name="fused_names" version="0" value="Transpose_5916" />
						</rt_info>
						<input>
							<port id="0" precision="FP32">
								<dim>-1</dim>
								<dim>8</dim>
								<dim>29</dim>
								<dim>29</dim>
							</port>
							<port id="1" precision="FP32">
								<dim>1</dim>
								<dim>8</dim>
								<dim>1</dim>
								<dim>1</dim>
							</port>
						</input>
						<output>
							<port id="2" precision="FP32">
								<dim>-1</dim>
								<dim>8</dim>
								<dim>29</dim>
								<dim>29</dim>
							</port>
						</output>
					</layer>
					<layer id="35" name="Constant_7116" type="Const" version="opset1">
						<data element_type="i64" shape="4" offset="51" size="32" />
						<rt_info>
							<attribute name="fused_names" version="0" value="Constant_7116" />
						</rt_info>
						<output>
							<port id="0" precision="I64">
								<dim>4</dim>
							</port>
						</output>
					</layer>
					<layer id="36" name="Transpose_7117" type="Transpose" version="opset1">
						<rt_info>
							<attribute name="fused_names" version="0" value="Transpose_7117" />
						</rt_info>
						<input>
							<port id="0" precision="FP32">
								<dim>-1</dim>
								<dim>29</dim>
								<dim>29</dim>
								<dim>8</dim>
							</port>
							<port id="1" precision="I64">
								<dim>4</dim>
							</port>
						</input>
						<output>
							<port id="2" precision="FP32">
								<dim>-1</dim>
								<dim>8</dim>
								<dim>29</dim>
								<dim>29</dim>
							</port>
						</output>
					</layer>
					<layer id="37" name="sequential_1/conv_lstm2d_1/while/ones_like/Const_compressed" type="Const" version="opset1">
						<data element_type="f16" shape="" offset="2475" size="2" />
						<rt_info>
…
						<data begin_mask="0" end_mask="0" new_axis_mask="" shrink_axis_mask="" ellipsis_mask="" />
						<rt_info>
							<attribute name="fused_names" version="0" value="Slice_2157" />
						</rt_info>
						<input>
							<port id="0" precision="I32">
								<dim>2</dim>
							</port>
							<port id="1" precision="I32">
								<dim>1</dim>
							</port>
							<port id="2" precision="I32">
								<dim>1</dim>
							</port>
							<port id="3" precision="I32">
								<dim>1</dim>
							</port>
						</input>
						<output>
							<port id="4" precision="I32">
								<dim>1</dim>
							</port>
						</output>
					</layer>
					<layer id="131" name="Constant_2159" type="Const" version="opset1">
						<data element_type="i32" shape="1" offset="28" size="4" />
						<rt_info>
							<attribute name="fused_names" version="0" value="Constant_2159" />
						</rt_info>
						<output>
							<port id="0" precision="I32">
								<dim>1</dim>
							</port>
						</output>
					</layer>
					<layer id="132" name="Add_2160" type="Add" version="opset1">
						<data auto_broadcast="numpy" />
						<rt_info>
							<attribute name="fused_names" version="0" value="Add_2160" />
						</rt_info>
						<input>
							<port id="0" precision="I32" />
							<port id="1" precision="I32">
								<dim>1</dim>
							</port>
						</input>
						<output>
							<port id="2" precision="I32">
								<dim>1</dim>
							</port>
						</output>
					</layer>
					<layer id="133" name="Maximum_2161" type="Maximum" version="opset1">
						<data auto_broadcast="numpy" />
						<rt_info>
							<attribute name="fused_names" version="0" value="Maximum_2161" />
						</rt_info>
						<input>
							<port id="0" precision="I32">
								<dim>1</dim>
							</port>
							<port id="1" precision="I32">
								<dim>1</dim>
							</port>
						</input>
						<output>
							<port id="2" precision="I32">
								<dim>1</dim>
							</port>
						</output>
					</layer>
					<layer id="134" name="Subtract_2162" type="Subtract" version="opset1">
						<data auto_broadcast="numpy" />
						<rt_info>
							<attribute name="fused_names" version="0" value="Subtract_2162" />
						</rt_info>
						<input>
							<port id="0" precision="I32">
								<dim>1</dim>
							</port>
							<port id="1" precision="I32">
								<dim>1</dim>
							</port>
						</input>
						<output>
							<port id="2" precision="I32">
								<dim>1</dim>
							</port>
						</output>
					</layer>
					<layer id="135" name="Concat_2164" type="Concat" version="opset1">
						<data axis="0" />
						<rt_info>
							<attribute name="fused_names" version="0" value="Concat_2164" />
						</rt_info>
						<input>
							<port id="0" precision="I32">
								<dim>1</dim>
							</port>
							<port id="1" precision="I32">
								<dim>1</dim>
							</port>
						</input>
						<output>
							<port id="2" precision="I32">
								<dim>2</dim>
							</port>
						</output>
					</layer>
					<layer id="136" name="Broadcast_2165" type="Broadcast" version="opset3">
						<data mode="numpy" />
						<rt_info>
							<attribute name="fused_names" version="0" value="Broadcast_2165" />
						</rt_info>
						<input>
							<port id="0" precision="FP32" />
							<port id="1" precision="I32">
								<dim>2</dim>
							</port>
						</input>
						<output>
							<port id="2" precision="FP32">
								<dim>-1</dim>
								<dim>-1</dim>
							</port>
						</output>
					</layer>
					<layer id="137" name="Concat_2166" type="Concat" version="opset1">
						<data axis="0" />
						<rt_info>
							<attribute name="fused_names" version="0" value="Concat_2166" />
						</rt_info>
						<input>
							<port id="0" precision="FP32">
								<dim>-1</dim>
								<dim>-1</dim>
							</port>
							<port id="1" precision="FP32">
								<dim>-1</dim>
								<dim>-1</dim>
							</port>
						</input>
						<output>
							<port id="2" precision="FP32">
								<dim>-1</dim>
								<dim>-1</dim>
							</port>
						</output>
					</layer>
					<layer id="138" name="Unsqueeze_2167" type="Unsqueeze" version="opset1">
						<rt_info>
							<attribute name="fused_names" version="0" value="Unsqueeze_2167" />
						</rt_info>
						<input>
							<port id="0" precision="I32" />
							<port id="1" precision="I32">
								<dim>1</dim>
							</port>
						</input>
						<output>
							<port id="2" precision="I32">
								<dim>1</dim>
							</port>
						</output>
					</layer>
					<layer id="139" name="Unsqueeze_2168" type="Unsqueeze" version="opset1">
						<rt_info>
							<attribute name="fused_names" version="0" value="Unsqueeze_2168" />
						</rt_info>
						<input>
							<port id="0" precision="FP32">
								<dim>-1</dim>
							</port>
							<port id="1" precision="I32">
								<dim>1</dim>
							</port>
						</input>
						<output>
							<port id="2" precision="FP32">
								<dim>1</dim>
								<dim>-1</dim>
							</port>
						</output>
					</layer>
					<layer id="140" name="sequential_1/conv_lstm2d_3/while/TensorArrayV2Write/TensorListSetItem" type="ScatterUpdate" version="opset3">
						<rt_info>
							<attribute name="fused_names" version="0" value="sequential_1/conv_lstm2d_3/while/TensorArrayV2Write/TensorListSetItem" />
						</rt_info>
						<input>
							<port id="0" precision="FP32">
								<dim>-1</dim>
								<dim>-1</dim>
							</port>
							<port id="1" precision="I32">
								<dim>1</dim>
							</port>
							<port id="2" precision="FP32">
								<dim>1</dim>
								<dim>-1</dim>
							</port>
							<port id="3" precision="I32">
								<dim>1</dim>
							</port>
						</input>
						<output>
							<port id="4" precision="FP32">
								<dim>-1</dim>
								<dim>-1</dim>
							</port>
						</output>
					</layer>
					<layer id="144" name="sequential_1/conv_lstm2d_3/while/add_9/y" type="Const" version="opset1">
						<data element_type="i32" shape="" offset="28" size="4" />
						<rt_info>
							<attribute name="fused_names" version="0" value="sequential_1/conv_lstm2d_3/while/add_9/y" />
						</rt_info>
						<output>
							<port id="0" precision="I32" />
						</output>
					</layer>
					<layer id="145" name="sequential_1/conv_lstm2d_3/while/add_9" type="Add" version="opset1">
						<data auto_broadcast="numpy" />
						<rt_info>
							<attribute name="fused_names" version="0" value="sequential_1/conv_lstm2d_3/while/add_9" />
						</rt_info>
						<input>
							<port id="0" precision="I32" />
							<port id="1" precision="I32" />
						</input>
						<output>
							<port id="2" precision="I32" />
						</output>
					</layer>
					<layer id="146" name="sequential_1_conv_lstm2d_3_while_identity" type="Result" version="opset1">
						<rt_info>
							<attribute name="fused_names" version="0" value="sequential_1_conv_lstm2d_3_while_identity" />
						</rt_info>
						<input>
							<port id="0" precision="I32" />
						</input>
					</layer>
					<layer id="143" name="sequential_1_conv_lstm2d_3_while_identity_1" type="Result" version="opset1">
						<rt_info>
							<attribute name="fused_names" version="0" value="sequential_1_conv_lstm2d_3_while_identity_1" />
						</rt_info>
						<input>
							<port id="0" precision="I32" />
						</input>
					</layer>
					<layer id="142" name="sequential_1_conv_lstm2d_3_while_identity_2" type="Result" version="opset1">
						<rt_info>
							<attribute name="fused_names" version="0" value="sequential_1_conv_lstm2d_3_while_identity_2" />
						</rt_info>
						<input>
							<port id="0" precision="I32" />
						</input>
					</layer>
					<layer id="141" name="sequential_1_conv_lstm2d_3_while_identity_3" type="Result" version="opset1">
						<rt_info>
							<attribute name="fused_names" version="0" value="sequential_1_conv_lstm2d_3_while_identity_3" />
						</rt_info>
						<input>
							<port id="0" precision="FP32">
								<dim>-1</dim>
								<dim>-1</dim>
							</port>
						</input>
					</layer>
					<layer id="117" name="sequential_1_conv_lstm2d_3_while_identity_4" type="Result" version="opset1">
						<rt_info>
							<attribute name="fused_names" version="0" value="sequential_1_conv_lstm2d_3_while_identity_4" />
						</rt_info>
						<input>
							<port id="0" precision="FP32">
								<dim>-1</dim>
								<dim>5</dim>
								<dim>5</dim>
								<dim>16</dim>
							</port>
						</input>
					</layer>
					<layer id="94" name="sequential_1_conv_lstm2d_3_while_identity_5" type="Result" version="opset1">
						<rt_info>
							<attribute name="fused_names" version="0" value="sequential_1_conv_lstm2d_3_while_identity_5" />
						</rt_info>
						<input>
							<port id="0" precision="FP32">
								<dim>-1</dim>
								<dim>5</dim>
								<dim>5</dim>
								<dim>16</dim>
							</port>
						</input>
					</layer>
					<layer id="19" name="sequential_1_conv_lstm2d_3_while_sequential_1_conv_lstm2d_3_strided_slice" type="Result" version="opset1">
						<rt_info>
							<attribute name="fused_names" version="0" value="sequential_1_conv_lstm2d_3_while_sequential_1_conv_lstm2d_3_strided_slice" />
						</rt_info>
						<input>
							<port id="0" precision="I32" />
						</input>
					</layer>
					<layer id="18" name="sequential_1_conv_lstm2d_3_while_tensorarrayv2read_tensorlistgetitem_sequential_1_conv_lstm2d_3_tensorarrayunstack_tensorlistfromtensor" type="Result" version="opset1">
						<rt_info>
							<attribute name="fused_names" version="0" value="sequential_1_conv_lstm2d_3_while_tensorarrayv2read_tensorlistgetitem_sequential_1_conv_lstm2d_3_tensorarrayunstack_tensorlistfromtensor" />
						</rt_info>
						<input>
							<port id="0" precision="FP32">
								<dim>25</dim>
								<dim>-1</dim>
								<dim>7</dim>
								<dim>7</dim>
								<dim>14</dim>
							</port>
						</input>
					</layer>
					<layer id="17" name="sequential_1_conv_lstm2d_3_while_split_readvariableop_resource" type="Result" version="opset1">
						<rt_info>
							<attribute name="fused_names" version="0" value="sequential_1_conv_lstm2d_3_while_split_readvariableop_resource" />
						</rt_info>
						<input>
							<port id="0" precision="FP32">
								<dim>3</dim>
								<dim>3</dim>
								<dim>14</dim>
								<dim>64</dim>
							</port>
						</input>
					</layer>
					<layer id="16" name="sequential_1_conv_lstm2d_3_while_split_1_readvariableop_resource" type="Result" version="opset1">
						<rt_info>
							<attribute name="fused_names" version="0" value="sequential_1_conv_lstm2d_3_while_split_1_readvariableop_resource" />
						</rt_info>
						<input>
							<port id="0" precision="FP32">
								<dim>3</dim>
								<dim>3</dim>
								<dim>16</dim>
								<dim>64</dim>
							</port>
						</input>
					</layer>
					<layer id="15" name="sequential_1_conv_lstm2d_3_while_split_2_readvariableop_resource" type="Result" version="opset1">
						<rt_info>
							<attribute name="fused_names" version="0" value="sequential_1_conv_lstm2d_3_while_split_2_readvariableop_resource" />
						</rt_info>
						<input>
							<port id="0" precision="FP32">
								<dim>64</dim>
							</port>
						</input>
					</layer>
					<layer id="14" name="sequential_1_conv_lstm2d_3_while_identity0" type="Result" version="opset1">
						<rt_info>
							<attribute name="fused_names" version="0" value="sequential_1_conv_lstm2d_3_while_identity" />
						</rt_info>
						<input>
							<port id="0" precision="BOOL" />
						</input>
					</layer>
				</layers>
				<edges>
					<edge from-layer="0" from-port="0" to-layer="15" to-port="0" />
					<edge from-layer="0" from-port="0" to-layer="31" to-port="0" />
					<edge from-layer="1" from-port="0" to-layer="45" to-port="0" />
					<edge from-layer="1" from-port="0" to-layer="16" to-port="0" />
					<edge from-layer="2" from-port="0" to-layer="17" to-port="0" />
					<edge from-layer="2" from-port="0" to-layer="26" to-port="0" />
					<edge from-layer="3" from-port="0" to-layer="18" to-port="0" />
					<edge from-layer="3" from-port="0" to-layer="21" to-port="0" />
					<edge from-layer="4" from-port="0" to-layer="13" to-port="1" />
					<edge from-layer="4" from-port="0" to-layer="19" to-port="0" />
					<edge from-layer="5" from-port="0" to-layer="58" to-port="0" />
					<edge from-layer="6" from-port="0" to-layer="100" to-port="0" />
					<edge from-layer="6" from-port="0" to-layer="39" to-port="0" />
					<edge from-layer="6" from-port="0" to-layer="65" to-port="0" />
					<edge from-layer="6" from-port="0" to-layer="36" to-port="0" />
					<edge from-layer="6" from-port="0" to-layer="83" to-port="0" />
					<edge from-layer="7" from-port="0" to-layer="123" to-port="0" />
					<edge from-layer="8" from-port="0" to-layer="22" to-port="0" />
					<edge from-layer="8" from-port="0" to-layer="12" to-port="0" />
					<edge from-layer="9" from-port="0" to-layer="143" to-port="0" />
					<edge from-layer="10" from-port="0" to-layer="145" to-port="0" />
					<edge from-layer="11" from-port="0" to-layer="12" to-port="1" />
					<edge from-layer="12" from-port="2" to-layer="142" to-port="0" />
					<edge from-layer="12" from-port="2" to-layer="13" to-port="0" />
					<edge from-layer="13" from-port="2" to-layer="14" to-port="0" />
					<edge from-layer="20" from-port="0" to-layer="21" to-port="1" />
					<edge from-layer="21" from-port="2" to-layer="24" to-port="0" />
					<edge from-layer="22" from-port="1" to-layer="24" to-port="1" />
					<edge from-layer="22" from-port="1" to-layer="138" to-port="0" />
					<edge from-layer="22" from-port="1" to-layer="132" to-port="0" />
					<edge from-layer="23" from-port="0" to-layer="24" to-port="2" />
					<edge from-layer="24" from-port="3" to-layer="78" to-port="0" />
					<edge from-layer="24" from-port="3" to-layer="95" to-port="0" />
					<edge from-layer="24" from-port="3" to-layer="60" to-port="0" />
					<edge from-layer="24" from-port="3" to-layer="29" to-port="0" />
					<edge from-layer="25" from-port="0" to-layer="26" to-port="1" />
					<edge from-layer="26" from-port="2" to-layer="28" to-port="0" />
					<edge from-layer="27" from-port="0" to-layer="28" to-port="1" />
					<edge from-layer="28" from-port="2" to-layer="60" to-port="1" />
					<edge from-layer="28" from-port="5" to-layer="95" to-port="1" />
					<edge from-layer="28" from-port="3" to-layer="29" to-port="1" />
					<edge from-layer="28" from-port="4" to-layer="78" to-port="1" />
					<edge from-layer="29" from-port="2" to-layer="34" to-port="0" />
					<edge from-layer="30" from-port="0" to-layer="31" to-port="1" />
					<edge from-layer="31" from-port="2" to-layer="62" to-port="0" />
					<edge from-layer="31" from-port="3" to-layer="33" to-port="0" />
					<edge from-layer="31" from-port="5" to-layer="97" to-port="0" />
					<edge from-layer="31" from-port="4" to-layer="80" to-port="0" />
					<edge from-layer="32" from-port="0" to-layer="33" to-port="1" />
					<edge from-layer="33" from-port="2" to-layer="34" to-port="1" />
					<edge from-layer="34" from-port="2" to-layer="49" to-port="0" />
					<edge from-layer="35" from-port="0" to-layer="36" to-port="1" />
					<edge from-layer="36" from-port="2" to-layer="43" to-port="0" />
					<edge from-layer="37" from-port="0" to-layer="38" to-port="0" />
					<edge from-layer="38" from-port="1" to-layer="40" to-port="0" />
					<edge from-layer="39" from-port="1" to-layer="40" to-port="1" />
					<edge from-layer="40" from-port="2" to-layer="102" to-port="0" />
					<edge from-layer="40" from-port="2" to-layer="85" to-port="0" />
					<edge from-layer="40" from-port="2" to-layer="42" to-port="0" />
					<edge from-layer="40" from-port="2" to-layer="67" to-port="0" />
					<edge from-layer="41" from-port="0" to-layer="42" to-port="1" />
					<edge from-layer="42" from-port="2" to-layer="43" to-port="1" />
					<edge from-layer="43" from-port="2" to-layer="48" to-port="0" />
					<edge from-layer="44" from-port="0" to-layer="45" to-port="1" />
					<edge from-layer="45" from-port="2" to-layer="47" to-port="0" />
					<edge from-layer="46" from-port="0" to-layer="47" to-port="1" />
					<edge from-layer="47" from-port="3" to-layer="48" to-port="1" />
					<edge from-layer="47" from-port="5" to-layer="104" to-port="1" />
					<edge from-layer="47" from-port="2" to-layer="69" to-port="1" />
					<edge from-layer="47" from-port="4" to-layer="87" to-port="1" />
					<edge from-layer="48" from-port="2" to-layer="49" to-port="1" />
					<edge from-layer="49" from-port="2" to-layer="52" to-port="0" />
					<edge from-layer="50" from-port="0" to-layer="51" to-port="0" />
					<edge from-layer="51" from-port="1" to-layer="52" to-port="1" />
					<edge from-layer="52" from-port="2" to-layer="55" to-port="0" />
					<edge from-layer="53" from-port="0" to-layer="54" to-port="0" />
					<edge from-layer="54" from-port="1" to-layer="55" to-port="1" />
					<edge from-layer="55" from-port="2" to-layer="56" to-port="0" />
					<edge from-layer="56" from-port="1" to-layer="59" to-port="0" />
					<edge from-layer="57" from-port="0" to-layer="58" to-port="1" />
					<edge from-layer="58" from-port="2" to-layer="59" to-port="1" />
					<edge from-layer="59" from-port="2" to-layer="91" to-port="0" />
					<edge from-layer="60" from-port="2" to-layer="63" to-port="0" />
					<edge from-layer="61" from-port="0" to-layer="62" to-port="1" />
					<edge from-layer="62" from-port="2" to-layer="63" to-port="1" />
					<edge from-layer="63" from-port="2" to-layer="70" to-port="0" />
					<edge from-layer="64" from-port="0" to-layer="65" to-port="1" />
					<edge from-layer="65" from-port="2" to-layer="68" to-port="0" />
					<edge from-layer="66" from-port="0" to-layer="67" to-port="1" />
					<edge from-layer="67" from-port="2" to-layer="68" to-port="1" />
					<edge from-layer="68" from-port="2" to-layer="69" to-port="0" />
					<edge from-layer="69" from-port="2" to-layer="70" to-port="1" />
					<edge from-layer="70" from-port="2" to-layer="73" to-port="0" />
					<edge from-layer="71" from-port="0" to-layer="72" to-port="0" />
					<edge from-layer="72" from-port="1" to-layer="73" to-port="1" />
					<edge from-layer="73" from-port="2" to-layer="76" to-port="0" />
					<edge from-layer="74" from-port="0" to-layer="75" to-port="0" />
					<edge from-layer="75" from-port="1" to-layer="76" to-port="1" />
					<edge from-layer="76" from-port="2" to-layer="77" to-port="0" />
					<edge from-layer="77" from-port="1" to-layer="90" to-port="0" />
					<edge from-layer="78" from-port="2" to-layer="81" to-port="0" />
					<edge from-layer="79" from-port="0" to-layer="80" to-port="1" />
					<edge from-layer="80" from-port="2" to-layer="81" to-port="1" />
					<edge from-layer="81" from-port="2" to-layer="88" to-port="0" />
					<edge from-layer="82" from-port="0" to-layer="83" to-port="1" />
					<edge from-layer="83" from-port="2" to-layer="86" to-port="0" />
					<edge from-layer="84" from-port="0" to-layer="85" to-port="1" />
					<edge from-layer="85" from-port="2" to-layer="86" to-port="1" />
					<edge from-layer="86" from-port="2" to-layer="87" to-port="0" />
					<edge from-layer="87" from-port="2" to-layer="88" to-port="1" />
					<edge from-layer="88" from-port="2" to-layer="89" to-port="0" />
					<edge from-layer="89" from-port="1" to-layer="90" to-port="1" />
					<edge from-layer="90" from-port="2" to-layer="91" to-port="1" />
					<edge from-layer="91" from-port="2" to-layer="93" to-port="0" />
					<edge from-layer="91" from-port="2" to-layer="113" to-port="0" />
					<edge from-layer="92" from-port="0" to-layer="93" to-port="1" />
					<edge from-layer="93" from-port="2" to-layer="94" to-port="0" />
					<edge from-layer="95" from-port="2" to-layer="98" to-port="0" />
					<edge from-layer="96" from-port="0" to-layer="97" to-port="1" />
					<edge from-layer="97" from-port="2" to-layer="98" to-port="1" />
					<edge from-layer="98" from-port="2" to-layer="105" to-port="0" />
					<edge from-layer="99" from-port="0" to-layer="100" to-port="1" />
					<edge from-layer="100" from-port="2" to-layer="103" to-port="0" />
					<edge from-layer="101" from-port="0" to-layer="102" to-port="1" />
					<edge from-layer="102" from-port="2" to-layer="103" to-port="1" />
					<edge from-layer="103" from-port="2" to-layer="104" to-port="0" />
					<edge from-layer="104" from-port="2" to-layer="105" to-port="1" />
					<edge from-layer="105" from-port="2" to-layer="108" to-port="0" />
					<edge from-layer="106" from-port="0" to-layer="107" to-port="0" />
					<edge from-layer="107" from-port="1" to-layer="108" to-port="1" />
					<edge from-layer="108" from-port="2" to-layer="111" to-port="0" />
					<edge from-layer="109" from-port="0" to-layer="110" to-port="0" />
					<edge from-layer="110" from-port="1" to-layer="111" to-port="1" />
					<edge from-layer="111" from-port="2" to-layer="112" to-port="0" />
					<edge from-layer="112" from-port="1" to-layer="114" to-port="0" />
					<edge from-layer="113" from-port="1" to-layer="114" to-port="1" />
					<edge from-layer="114" from-port="2" to-layer="116" to-port="0" />
					<edge from-layer="115" from-port="0" to-layer="116" to-port="1" />
					<edge from-layer="116" from-port="2" to-layer="117" to-port="0" />
					<edge from-layer="116" from-port="2" to-layer="120" to-port="0" />
					<edge from-layer="118" from-port="0" to-layer="122" to-port="0" />
					<edge from-layer="119" from-port="0" to-layer="120" to-port="1" />
					<edge from-layer="120" from-port="2" to-layer="124" to-port="1" />
					<edge from-layer="120" from-port="2" to-layer="121" to-port="0" />
					<edge from-layer="120" from-port="2" to-layer="139" to-port="0" />
					<edge from-layer="121" from-port="1" to-layer="122" to-port="1" />
					<edge from-layer="121" from-port="1" to-layer="135" to-port="1" />
					<edge from-layer="122" from-port="2" to-layer="123" to-port="1" />
					<edge from-layer="123" from-port="2" to-layer="124" to-port="0" />
					<edge from-layer="124" from-port="2" to-layer="127" to-port="0" />
					<edge from-layer="124" from-port="2" to-layer="137" to-port="0" />
					<edge from-layer="125" from-port="0" to-layer="126" to-port="0" />
					<edge from-layer="126" from-port="1" to-layer="136" to-port="0" />
					<edge from-layer="127" from-port="1" to-layer="130" to-port="0" />
					<edge from-layer="128" from-port="0" to-layer="140" to-port="3" />
					<edge from-layer="128" from-port="0" to-layer="139" to-port="1" />
					<edge from-layer="128" from-port="0" to-layer="130" to-port="1" />
					<edge from-layer="128" from-port="0" to-layer="138" to-port="1" />
					<edge from-layer="129" from-port="0" to-layer="130" to-port="3" />
					<edge from-layer="129" from-port="0" to-layer="130" to-port="2" />
					<edge from-layer="130" from-port="4" to-layer="133" to-port="0" />
					<edge from-layer="130" from-port="4" to-layer="134" to-port="1" />
					<edge from-layer="131" from-port="0" to-layer="132" to-port="1" />
					<edge from-layer="132" from-port="2" to-layer="133" to-port="1" />
					<edge from-layer="133" from-port="2" to-layer="134" to-port="0" />
					<edge from-layer="134" from-port="2" to-layer="135" to-port="0" />
					<edge from-layer="135" from-port="2" to-layer="136" to-port="1" />
					<edge from-layer="136" from-port="2" to-layer="137" to-port="1" />
					<edge from-layer="137" from-port="2" to-layer="140" to-port="0" />
					<edge from-layer="138" from-port="2" to-layer="140" to-port="1" />
					<edge from-layer="139" from-port="2" to-layer="140" to-port="2" />
					<edge from-layer="140" from-port="4" to-layer="141" to-port="0" />
					<edge from-layer="144" from-port="0" to-layer="145" to-port="1" />
					<edge from-layer="145" from-port="2" to-layer="146" to-port="0" />
				</edges>
				<rt_info />
			</body>
		</layer>
		<layer id="197" name="ShapeOf_2555" type="ShapeOf" version="opset3">
			<data output_type="i32" />
			<input>
				<port id="0" precision="FP32">
					<dim>-1</dim>
					<dim>-1</dim>
				</port>
			</input>
			<output>
				<port id="1" precision="I32">
					<dim>2</dim>
				</port>
			</output>
		</layer>
		<layer id="198" name="Constant_2556" type="Const" version="opset1">
			<data element_type="i32" shape="1" offset="4" size="4" />
			<output>
				<port id="0" precision="I32">
					<dim>1</dim>
				</port>
			</output>
		</layer>
		<layer id="199" name="Constant_2557" type="Const" version="opset1">
			<data element_type="i32" shape="1" offset="28" size="4" />
			<output>
				<port id="0" precision="I32">
					<dim>1</dim>
				</port>
			</output>
		</layer>
		<layer id="200" name="Slice_2558" type="StridedSlice" version="opset1">
			<data begin_mask="0" end_mask="0" new_axis_mask="" shrink_axis_mask="" ellipsis_mask="" />
			<input>
				<port id="0" precision="I32">
					<dim>2</dim>
				</port>
				<port id="1" precision="I32">
					<dim>1</dim>
				</port>
				<port id="2" precision="I32">
					<dim>1</dim>
				</port>
				<port id="3" precision="I32">
					<dim>1</dim>
				</port>
			</input>
			<output>
				<port id="4" precision="I32">
					<dim>1</dim>
				</port>
			</output>
		</layer>
		<layer id="201" name="sequential_1/conv_lstm2d_3/TensorArrayV2Stack/TensorListStack/element_shape" type="Const" version="opset1">
			<data element_type="i32" shape="4" offset="73313" size="16" />
			<output>
				<port id="0" precision="I32" names="sequential_1/conv_lstm2d_3/TensorArrayV2Stack/TensorListStack/element_shape,sequential_1/conv_lstm2d_3/TensorArrayV2Stack/TensorListStack/element_shape:0">
					<dim>4</dim>
				</port>
			</output>
		</layer>
		<layer id="202" name="Concat_2560" type="Concat" version="opset1">
			<data axis="0" />
			<input>
				<port id="0" precision="I32">
					<dim>1</dim>
				</port>
				<port id="1" precision="I32">
					<dim>4</dim>
				</port>
			</input>
			<output>
				<port id="2" precision="I32">
					<dim>5</dim>
				</port>
			</output>
		</layer>
		<layer id="203" name="sequential_1/conv_lstm2d_3/TensorArrayV2Stack/TensorListStack" type="Reshape" version="opset1">
			<data special_zero="false" />
			<input>
				<port id="0" precision="FP32">
					<dim>-1</dim>
					<dim>-1</dim>
				</port>
				<port id="1" precision="I32">
					<dim>5</dim>
				</port>
			</input>
			<output>
				<port id="2" precision="FP32" names="sequential_1/conv_lstm2d_3/TensorArrayV2Stack/TensorListStack,sequential_1/conv_lstm2d_3/TensorArrayV2Stack/TensorListStack:0">
					<dim>-1</dim>
					<dim>-1</dim>
					<dim>5</dim>
					<dim>5</dim>
					<dim>16</dim>
				</port>
			</output>
		</layer>
		<layer id="204" name="Constant_6311" type="Const" version="opset1">
			<data element_type="i64" shape="5" offset="2517" size="40" />
			<output>
				<port id="0" precision="I64">
					<dim>5</dim>
				</port>
			</output>
		</layer>
		<layer id="205" name="Transpose_3057" type="Transpose" version="opset1">
			<input>
				<port id="0" precision="FP32">
					<dim>-1</dim>
					<dim>-1</dim>
					<dim>5</dim>
					<dim>5</dim>
					<dim>16</dim>
				</port>
				<port id="1" precision="I64">
					<dim>5</dim>
				</port>
			</input>
			<output>
				<port id="2" precision="FP32" names="sequential_1/conv_lstm2d_3/transpose_1,sequential_1/conv_lstm2d_3/transpose_1:0">
					<dim>-1</dim>
					<dim>16</dim>
					<dim>-1</dim>
					<dim>5</dim>
					<dim>5</dim>
				</port>
			</output>
		</layer>
		<layer id="206" name="MaxPool_3058" type="MaxPool" version="opset8">
			<data strides="1, 2, 2" dilations="1, 1, 1" pads_begin="0, 0, 0" pads_end="0, 0, 0" kernel="1, 2, 2" rounding_type="floor" auto_pad="same_upper" index_element_type="i64" axis="0" />
			<input>
				<port id="0" precision="FP32">
					<dim>-1</dim>
					<dim>16</dim>
					<dim>-1</dim>
					<dim>5</dim>
					<dim>5</dim>
				</port>
			</input>
			<output>
				<port id="1" precision="FP32">
					<dim>-1</dim>
					<dim>16</dim>
					<dim>-1</dim>
					<dim>3</dim>
					<dim>3</dim>
				</port>
				<port id="2" precision="I64">
					<dim>-1</dim>
					<dim>16</dim>
					<dim>-1</dim>
					<dim>3</dim>
					<dim>3</dim>
				</port>
			</output>
		</layer>
		<layer id="207" name="Constant_3059" type="Const" version="opset1">
			<data element_type="i64" shape="5" offset="2557" size="40" />
			<output>
				<port id="0" precision="I64">
					<dim>5</dim>
				</port>
			</output>
		</layer>
		<layer id="208" name="sequential_1/max_pooling3d_3/MaxPool3D" type="Transpose" version="opset1">
			<input>
				<port id="0" precision="FP32">
					<dim>-1</dim>
					<dim>16</dim>
					<dim>-1</dim>
					<dim>3</dim>
					<dim>3</dim>
				</port>
				<port id="1" precision="I64">
					<dim>5</dim>
				</port>
			</input>
			<output>
				<port id="2" precision="FP32" names="sequential_1/max_pooling3d_3/MaxPool3D,sequential_1/max_pooling3d_3/MaxPool3D:0">
					<dim>-1</dim>
					<dim>-1</dim>
					<dim>3</dim>
					<dim>3</dim>
					<dim>16</dim>
				</port>
			</output>
		</layer>
		<layer id="209" name="sequential_1/flatten/Const" type="Const" version="opset1">
			<data element_type="i64" shape="2" offset="73329" size="16" />
			<output>
				<port id="0" precision="I64" names="sequential_1/flatten/Const,sequential_1/flatten/Const:0">
					<dim>2</dim>
				</port>
			</output>
		</layer>
		<layer id="210" name="sequential_1/flatten/Reshape" type="Reshape" version="opset1">
			<data special_zero="false" />
			<input>
				<port id="0" precision="FP32">
					<dim>-1</dim>
					<dim>-1</dim>
					<dim>3</dim>
					<dim>3</dim>
					<dim>16</dim>
				</port>
				<port id="1" precision="I64">
					<dim>2</dim>
				</port>
			</input>
			<output>
				<port id="2" precision="FP32" names="sequential_1/flatten/Reshape,sequential_1/flatten/Reshape:0">
					<dim>-1</dim>
					<dim>3600</dim>
				</port>
			</output>
		</layer>
		<layer id="211" name="Transpose_9726_compressed" type="Const" version="opset1">
			<data element_type="f16" shape="101, 3600" offset="73345" size="727200" />
			<output>
				<port id="0" precision="FP16">
					<dim>101</dim>
					<dim>3600</dim>
				</port>
			</output>
		</layer>
		<layer id="212" name="Transpose_9726" type="Convert" version="opset1">
			<data destination_type="f32" />
			<rt_info>
				<attribute name="decompression" version="0" />
			</rt_info>
			<input>
				<port id="0" precision="FP16">
					<dim>101</dim>
					<dim>3600</dim>
				</port>
			</input>
			<output>
				<port id="1" precision="FP32">
					<dim>101</dim>
					<dim>3600</dim>
				</port>
			</output>
		</layer>
		<layer id="213" name="sequential_1/dense/MatMul" type="MatMul" version="opset1">
			<data transpose_a="false" transpose_b="true" />
			<input>
				<port id="0" precision="FP32">
					<dim>-1</dim>
					<dim>3600</dim>
				</port>
				<port id="1" precision="FP32">
					<dim>101</dim>
					<dim>3600</dim>
				</port>
			</input>
			<output>
				<port id="2" precision="FP32" names="sequential_1/dense/MatMul,sequential_1/dense/MatMul:0">
					<dim>-1</dim>
					<dim>101</dim>
				</port>
			</output>
		</layer>
		<layer id="214" name="Constant_9828_compressed" type="Const" version="opset1">
			<data element_type="f16" shape="1, 101" offset="800545" size="202" />
			<output>
				<port id="0" precision="FP16">
					<dim>1</dim>
					<dim>101</dim>
				</port>
			</output>
		</layer>
		<layer id="215" name="Constant_9828" type="Convert" version="opset1">
			<data destination_type="f32" />
			<rt_info>
				<attribute name="decompression" version="0" />
			</rt_info>
			<input>
				<port id="0" precision="FP16">
					<dim>1</dim>
					<dim>101</dim>
				</port>
			</input>
			<output>
				<port id="1" precision="FP32">
					<dim>1</dim>
					<dim>101</dim>
				</port>
			</output>
		</layer>
		<layer id="216" name="sequential_1/dense/BiasAdd" type="Add" version="opset1">
			<data auto_broadcast="numpy" />
			<input>
				<port id="0" precision="FP32">
					<dim>-1</dim>
					<dim>101</dim>
				</port>
				<port id="1" precision="FP32">
					<dim>1</dim>
					<dim>101</dim>
				</port>
			</input>
			<output>
				<port id="2" precision="FP32" names="sequential_1/dense/BiasAdd,sequential_1/dense/BiasAdd:0">
					<dim>-1</dim>
					<dim>101</dim>
				</port>
			</output>
		</layer>
		<layer id="217" name="sequential_1/dense/Softmax" type="SoftMax" version="opset8">
			<data axis="-1" />
			<input>
				<port id="0" precision="FP32">
					<dim>-1</dim>
					<dim>101</dim>
				</port>
			</input>
			<output>
				<port id="1" precision="FP32" names="dense">
					<dim>-1</dim>
					<dim>101</dim>
				</port>
			</output>
		</layer>
		<layer id="218" name="dense" type="Result" version="opset1">
			<input>
				<port id="0" precision="FP32">
					<dim>-1</dim>
					<dim>101</dim>
				</port>
			</input>
		</layer>
	</layers>
	<edges>
		<edge from-layer="0" from-port="0" to-layer="10" to-port="0" />
		<edge from-layer="0" from-port="0" to-layer="23" to-port="0" />
		<edge from-layer="1" from-port="0" to-layer="196" to-port="0" />
		<edge from-layer="2" from-port="0" to-layer="169" to-port="0" />
		<edge from-layer="2" from-port="0" to-layer="196" to-port="4" />
		<edge from-layer="3" from-port="0" to-layer="145" to-port="0" />
		<edge from-layer="4" from-port="0" to-layer="145" to-port="4" />
		<edge from-layer="4" from-port="0" to-layer="118" to-port="0" />
		<edge from-layer="5" from-port="0" to-layer="94" to-port="0" />
		<edge from-layer="6" from-port="0" to-layer="94" to-port="4" />
		<edge from-layer="6" from-port="0" to-layer="67" to-port="0" />
		<edge from-layer="7" from-port="0" to-layer="43" to-port="0" />
		<edge from-layer="8" from-port="0" to-layer="16" to-port="0" />
		<edge from-layer="8" from-port="0" to-layer="43" to-port="4" />
		<edge from-layer="9" from-port="0" to-layer="10" to-port="1" />
		<edge from-layer="10" from-port="2" to-layer="11" to-port="0" />
		<edge from-layer="10" from-port="2" to-layer="43" to-port="9" />
		<edge from-layer="11" from-port="1" to-layer="15" to-port="0" />
		<edge from-layer="12" from-port="0" to-layer="15" to-port="1" />
		<edge from-layer="13" from-port="0" to-layer="15" to-port="2" />
		<edge from-layer="14" from-port="0" to-layer="15" to-port="3" />
		<edge from-layer="15" from-port="4" to-layer="16" to-port="1" />
		<edge from-layer="15" from-port="4" to-layer="43" to-port="8" />
		<edge from-layer="16" from-port="2" to-layer="43" to-port="1" />
		<edge from-layer="17" from-port="0" to-layer="43" to-port="2" />
		<edge from-layer="18" from-port="0" to-layer="43" to-port="3" />
		<edge from-layer="19" from-port="0" to-layer="43" to-port="5" />
		<edge from-layer="20" from-port="0" to-layer="21" to-port="0" />
		<edge from-layer="21" from-port="1" to-layer="25" to-port="0" />
		<edge from-layer="22" from-port="0" to-layer="24" to-port="0" />
		<edge from-layer="23" from-port="1" to-layer="24" to-port="1" />
		<edge from-layer="24" from-port="2" to-layer="25" to-port="1" />
		<edge from-layer="25" from-port="2" to-layer="27" to-port="0" />
		<edge from-layer="26" from-port="0" to-layer="27" to-port="1" />
		<edge from-layer="27" from-port="2" to-layer="29" to-port="0" />
		<edge from-layer="28" from-port="0" to-layer="29" to-port="1" />
		<edge from-layer="29" from-port="2" to-layer="31" to-port="0" />
		<edge from-layer="30" from-port="0" to-layer="31" to-port="1" />
		<edge from-layer="31" from-port="2" to-layer="34" to-port="0" />
		<edge from-layer="32" from-port="0" to-layer="33" to-port="0" />
		<edge from-layer="33" from-port="1" to-layer="34" to-port="1" />
		<edge from-layer="34" from-port="2" to-layer="36" to-port="0" />
		<edge from-layer="35" from-port="0" to-layer="36" to-port="1" />
		<edge from-layer="36" from-port="2" to-layer="43" to-port="6" />
		<edge from-layer="36" from-port="2" to-layer="43" to-port="7" />
		<edge from-layer="37" from-port="0" to-layer="38" to-port="0" />
		<edge from-layer="38" from-port="1" to-layer="43" to-port="10" />
		<edge from-layer="39" from-port="0" to-layer="40" to-port="0" />
		<edge from-layer="40" from-port="1" to-layer="43" to-port="11" />
		<edge from-layer="41" from-port="0" to-layer="42" to-port="0" />
		<edge from-layer="42" from-port="1" to-layer="43" to-port="12" />
		<edge from-layer="43" from-port="13" to-layer="50" to-port="0" />
		<edge from-layer="43" from-port="13" to-layer="44" to-port="0" />
		<edge from-layer="44" from-port="1" to-layer="47" to-port="0" />
		<edge from-layer="45" from-port="0" to-layer="47" to-port="1" />
		<edge from-layer="46" from-port="0" to-layer="47" to-port="2" />
		<edge from-layer="46" from-port="0" to-layer="47" to-port="3" />
		<edge from-layer="47" from-port="4" to-layer="49" to-port="0" />
		<edge from-layer="48" from-port="0" to-layer="49" to-port="1" />
		<edge from-layer="49" from-port="2" to-layer="50" to-port="1" />
		<edge from-layer="50" from-port="2" to-layer="52" to-port="0" />
		<edge from-layer="51" from-port="0" to-layer="52" to-port="1" />
		<edge from-layer="52" from-port="2" to-layer="53" to-port="0" />
		<edge from-layer="53" from-port="1" to-layer="55" to-port="0" />
		<edge from-layer="54" from-port="0" to-layer="55" to-port="1" />
		<edge from-layer="55" from-port="2" to-layer="57" to-port="0" />
		<edge from-layer="56" from-port="0" to-layer="57" to-port="1" />
		<edge from-layer="57" from-port="2" to-layer="59" to-port="0" />
		<edge from-layer="58" from-port="0" to-layer="59" to-port="1" />
		<edge from-layer="59" from-port="2" to-layer="61" to-port="0" />
		<edge from-layer="59" from-port="2" to-layer="74" to-port="0" />
		<edge from-layer="60" from-port="0" to-layer="61" to-port="1" />
		<edge from-layer="61" from-port="2" to-layer="62" to-port="0" />
		<edge from-layer="61" from-port="2" to-layer="94" to-port="9" />
		<edge from-layer="62" from-port="1" to-layer="66" to-port="0" />
		<edge from-layer="63" from-port="0" to-layer="66" to-port="1" />
		<edge from-layer="64" from-port="0" to-layer="66" to-port="2" />
		<edge from-layer="65" from-port="0" to-layer="66" to-port="3" />
		<edge from-layer="66" from-port="4" to-layer="67" to-port="1" />
		<edge from-layer="66" from-port="4" to-layer="94" to-port="8" />
		<edge from-layer="67" from-port="2" to-layer="94" to-port="1" />
		<edge from-layer="68" from-port="0" to-layer="94" to-port="2" />
		<edge from-layer="69" from-port="0" to-layer="94" to-port="3" />
		<edge from-layer="70" from-port="0" to-layer="94" to-port="5" />
		<edge from-layer="71" from-port="0" to-layer="72" to-port="0" />
		<edge from-layer="72" from-port="1" to-layer="76" to-port="0" />
		<edge from-layer="73" from-port="0" to-layer="75" to-port="0" />
		<edge from-layer="74" from-port="1" to-layer="75" to-port="1" />
		<edge from-layer="75" from-port="2" to-layer="76" to-port="1" />
		<edge from-layer="76" from-port="2" to-layer="78" to-port="0" />
		<edge from-layer="77" from-port="0" to-layer="78" to-port="1" />
		<edge from-layer="78" from-port="2" to-layer="80" to-port="0" />
		<edge from-layer="79" from-port="0" to-layer="80" to-port="1" />
		<edge from-layer="80" from-port="2" to-layer="82" to-port="0" />
		<edge from-layer="81" from-port="0" to-layer="82" to-port="1" />
		<edge from-layer="82" from-port="2" to-layer="85" to-port="0" />
		<edge from-layer="83" from-port="0" to-layer="84" to-port="0" />
		<edge from-layer="84" from-port="1" to-layer="85" to-port="1" />
		<edge from-layer="85" from-port="2" to-layer="87" to-port="0" />
		<edge from-layer="86" from-port="0" to-layer="87" to-port="1" />
		<edge from-layer="87" from-port="2" to-layer="94" to-port="6" />
		<edge from-layer="87" from-port="2" to-layer="94" to-port="7" />
		<edge from-layer="88" from-port="0" to-layer="89" to-port="0" />
		<edge from-layer="89" from-port="1" to-layer="94" to-port="10" />
		<edge from-layer="90" from-port="0" to-layer="91" to-port="0" />
		<edge from-layer="91" from-port="1" to-layer="94" to-port="11" />
		<edge from-layer="92" from-port="0" to-layer="93" to-port="0" />
		<edge from-layer="93" from-port="1" to-layer="94" to-port="12" />
		<edge from-layer="94" from-port="13" to-layer="101" to-port="0" />
		<edge from-layer="94" from-port="13" to-layer="95" to-port="0" />
		<edge from-layer="95" from-port="1" to-layer="98" to-port="0" />
		<edge from-layer="96" from-port="0" to-layer="98" to-port="1" />
		<edge from-layer="97" from-port="0" to-layer="98" to-port="2" />
		<edge from-layer="97" from-port="0" to-layer="98" to-port="3" />
		<edge from-layer="98" from-port="4" to-layer="100" to-port="0" />
		<edge from-layer="99" from-port="0" to-layer="100" to-port="1" />
		<edge from-layer="100" from-port="2" to-layer="101" to-port="1" />
		<edge from-layer="101" from-port="2" to-layer="103" to-port="0" />
		<edge from-layer="102" from-port="0" to-layer="103" to-port="1" />
		<edge from-layer="103" from-port="2" to-layer="104" to-port="0" />
		<edge from-layer="104" from-port="1" to-layer="106" to-port="0" />
		<edge from-layer="105" from-port="0" to-layer="106" to-port="1" />
		<edge from-layer="106" from-port="2" to-layer="108" to-port="0" />
		<edge from-layer="107" from-port="0" to-layer="108" to-port="1" />
		<edge from-layer="108" from-port="2" to-layer="110" to-port="0" />
		<edge from-layer="109" from-port="0" to-layer="110" to-port="1" />
		<edge from-layer="110" from-port="2" to-layer="125" to-port="0" />
		<edge from-layer="110" from-port="2" to-layer="112" to-port="0" />
		<edge from-layer="111" from-port="0" to-layer="112" to-port="1" />
		<edge from-layer="112" from-port="2" to-layer="145" to-port="9" />
		<edge from-layer="112" from-port="2" to-layer="113" to-port="0" />
		<edge from-layer="113" from-port="1" to-layer="117" to-port="0" />
		<edge from-layer="114" from-port="0" to-layer="117" to-port="1" />
		<edge from-layer="115" from-port="0" to-layer="117" to-port="2" />
		<edge from-layer="116" from-port="0" to-layer="117" to-port="3" />
		<edge from-layer="117" from-port="4" to-layer="118" to-port="1" />
		<edge from-layer="117" from-port="4" to-layer="145" to-port="8" />
		<edge from-layer="118" from-port="2" to-layer="145" to-port="1" />
		<edge from-layer="119" from-port="0" to-layer="145" to-port="2" />
		<edge from-layer="120" from-port="0" to-layer="145" to-port="3" />
		<edge from-layer="121" from-port="0" to-layer="145" to-port="5" />
		<edge from-layer="122" from-port="0" to-layer="123" to-port="0" />
		<edge from-layer="123" from-port="1" to-layer="127" to-port="0" />
		<edge from-layer="124" from-port="0" to-layer="126" to-port="0" />
		<edge from-layer="125" from-port="1" to-layer="126" to-port="1" />
		<edge from-layer="126" from-port="2" to-layer="127" to-port="1" />
		<edge from-layer="127" from-port="2" to-layer="129" to-port="0" />
		<edge from-layer="128" from-port="0" to-layer="129" to-port="1" />
		<edge from-layer="129" from-port="2" to-layer="131" to-port="0" />
		<edge from-layer="130" from-port="0" to-layer="131" to-port="1" />
		<edge from-layer="131" from-port="2" to-layer="133" to-port="0" />
		<edge from-layer="132" from-port="0" to-layer="133" to-port="1" />
		<edge from-layer="133" from-port="2" to-layer="136" to-port="0" />
		<edge from-layer="134" from-port="0" to-layer="135" to-port="0" />
		<edge from-layer="135" from-port="1" to-layer="136" to-port="1" />
		<edge from-layer="136" from-port="2" to-layer="138" to-port="0" />
		<edge from-layer="137" from-port="0" to-layer="138" to-port="1" />
		<edge from-layer="138" from-port="2" to-layer="145" to-port="6" />
		<edge from-layer="138" from-port="2" to-layer="145" to-port="7" />
		<edge from-layer="139" from-port="0" to-layer="140" to-port="0" />
		<edge from-layer="140" from-port="1" to-layer="145" to-port="10" />
		<edge from-layer="141" from-port="0" to-layer="142" to-port="0" />
		<edge from-layer="142" from-port="1" to-layer="145" to-port="11" />
		<edge from-layer="143" from-port="0" to-layer="144" to-port="0" />
		<edge from-layer="144" from-port="1" to-layer="145" to-port="12" />
		<edge from-layer="145" from-port="13" to-layer="146" to-port="0" />
		<edge from-layer="145" from-port="13" to-layer="152" to-port="0" />
		<edge from-layer="146" from-port="1" to-layer="149" to-port="0" />
		<edge from-layer="147" from-port="0" to-layer="149" to-port="1" />
		<edge from-layer="148" from-port="0" to-layer="149" to-port="2" />
		<edge from-layer="148" from-port="0" to-layer="149" to-port="3" />
		<edge from-layer="149" from-port="4" to-layer="151" to-port="0" />
		<edge from-layer="150" from-port="0" to-layer="151" to-port="1" />
		<edge from-layer="151" from-port="2" to-layer="152" to-port="1" />
		<edge from-layer="152" from-port="2" to-layer="154" to-port="0" />
		<edge from-layer="153" from-port="0" to-layer="154" to-port="1" />
		<edge from-layer="154" from-port="2" to-layer="155" to-port="0" />
		<edge from-layer="155" from-port="1" to-layer="157" to-port="0" />
		<edge from-layer="156" from-port="0" to-layer="157" to-port="1" />
		<edge from-layer="157" from-port="2" to-layer="159" to-port="0" />
		<edge from-layer="158" from-port="0" to-layer="159" to-port="1" />
		<edge from-layer="159" from-port="2" to-layer="161" to-port="0" />
		<edge from-layer="160" from-port="0" to-layer="161" to-port="1" />
		<edge from-layer="161" from-port="2" to-layer="163" to-port="0" />
		<edge from-layer="161" from-port="2" to-layer="176" to-port="0" />
		<edge from-layer="162" from-port="0" to-layer="163" to-port="1" />
		<edge from-layer="163" from-port="2" to-layer="196" to-port="9" />
		<edge from-layer="163" from-port="2" to-layer="164" to-port="0" />
		<edge from-layer="164" from-port="1" to-layer="168" to-port="0" />
		<edge from-layer="165" from-port="0" to-layer="168" to-port="1" />
		<edge from-layer="166" from-port="0" to-layer="168" to-port="2" />
		<edge from-layer="167" from-port="0" to-layer="168" to-port="3" />
		<edge from-layer="168" from-port="4" to-layer="169" to-port="1" />
		<edge from-layer="168" from-port="4" to-layer="196" to-port="8" />
		<edge from-layer="169" from-port="2" to-layer="196" to-port="1" />
		<edge from-layer="170" from-port="0" to-layer="196" to-port="2" />
		<edge from-layer="171" from-port="0" to-layer="196" to-port="3" />
		<edge from-layer="172" from-port="0" to-layer="196" to-port="5" />
		<edge from-layer="173" from-port="0" to-layer="174" to-port="0" />
		<edge from-layer="174" from-port="1" to-layer="178" to-port="0" />
		<edge from-layer="175" from-port="0" to-layer="177" to-port="0" />
		<edge from-layer="176" from-port="1" to-layer="177" to-port="1" />
		<edge from-layer="177" from-port="2" to-layer="178" to-port="1" />
		<edge from-layer="178" from-port="2" to-layer="180" to-port="0" />
		<edge from-layer="179" from-port="0" to-layer="180" to-port="1" />
		<edge from-layer="180" from-port="2" to-layer="182" to-port="0" />
		<edge from-layer="181" from-port="0" to-layer="182" to-port="1" />
		<edge from-layer="182" from-port="2" to-layer="184" to-port="0" />
		<edge from-layer="183" from-port="0" to-layer="184" to-port="1" />
		<edge from-layer="184" from-port="2" to-layer="187" to-port="0" />
		<edge from-layer="185" from-port="0" to-layer="186" to-port="0" />
		<edge from-layer="186" from-port="1" to-layer="187" to-port="1" />
		<edge from-layer="187" from-port="2" to-layer="189" to-port="0" />
		<edge from-layer="188" from-port="0" to-layer="189" to-port="1" />
		<edge from-layer="189" from-port="2" to-layer="196" to-port="6" />
		<edge from-layer="189" from-port="2" to-layer="196" to-port="7" />
		<edge from-layer="190" from-port="0" to-layer="191" to-port="0" />
		<edge from-layer="191" from-port="1" to-layer="196" to-port="10" />
		<edge from-layer="192" from-port="0" to-layer="193" to-port="0" />
		<edge from-layer="193" from-port="1" to-layer="196" to-port="11" />
		<edge from-layer="194" from-port="0" to-layer="195" to-port="0" />
		<edge from-layer="195" from-port="1" to-layer="196" to-port="12" />
		<edge from-layer="196" from-port="13" to-layer="197" to-port="0" />
		<edge from-layer="196" from-port="13" to-layer="203" to-port="0" />
		<edge from-layer="197" from-port="1" to-layer="200" to-port="0" />
		<edge from-layer="198" from-port="0" to-layer="200" to-port="1" />
		<edge from-layer="199" from-port="0" to-layer="200" to-port="2" />
		<edge from-layer="199" from-port="0" to-layer="200" to-port="3" />
		<edge from-layer="200" from-port="4" to-layer="202" to-port="0" />
		<edge from-layer="201" from-port="0" to-layer="202" to-port="1" />
		<edge from-layer="202" from-port="2" to-layer="203" to-port="1" />
		<edge from-layer="203" from-port="2" to-layer="205" to-port="0" />
		<edge from-layer="204" from-port="0" to-layer="205" to-port="1" />
		<edge from-layer="205" from-port="2" to-layer="206" to-port="0" />
		<edge from-layer="206" from-port="1" to-layer="208" to-port="0" />
		<edge from-layer="207" from-port="0" to-layer="208" to-port="1" />
		<edge from-layer="208" from-port="2" to-layer="210" to-port="0" />
		<edge from-layer="209" from-port="0" to-layer="210" to-port="1" />
		<edge from-layer="210" from-port="2" to-layer="213" to-port="0" />
		<edge from-layer="211" from-port="0" to-layer="212" to-port="0" />
		<edge from-layer="212" from-port="1" to-layer="213" to-port="1" />
		<edge from-layer="213" from-port="2" to-layer="216" to-port="0" />
		<edge from-layer="214" from-port="0" to-layer="215" to-port="0" />
		<edge from-layer="215" from-port="1" to-layer="216" to-port="1" />
		<edge from-layer="216" from-port="2" to-layer="217" to-port="0" />
		<edge from-layer="217" from-port="1" to-layer="218" to-port="0" />
	</edges>
	<rt_info>
		<MO_version value="2023.1.0-12185-9e6b00e51cd-releases/2023/1" />
		<Runtime_version value="2023.1.0-12185-9e6b00e51cd-releases/2023/1" />
		<conversion_parameters>
			<input value="conv_lstm2d_input" />
			<input_model value="/home/u205818/model/action.tf/" />
			<input_shape value="[1,25,64,64,3]" />
			<is_python_api_used value="False" />
			<output_dir value="DIR" />
		</conversion_parameters>
		<legacy_frontend value="False" />
	</rt_info>
</net>
